7767517
1091 1874
Input                    in0                      0 1 in0
Convolution              conv_2                   1 1 in0 1 0=64 1=3 11=3 12=1 13=1 14=1 2=1 3=1 4=1 5=1 6=1728
Split                    splitncnn_0              1 8 1 2 3 4 5 6 7 8 9
Convolution              convrelu_0               1 1 9 10 0=32 1=3 -23310=1,2.000000e-01 11=3 12=1 13=1 14=1 2=1 3=1 4=1 5=1 6=18432 9=2
Split                    splitncnn_1              1 4 10 11 12 13 14
Concat                   cat_0                    2 1 2 11 15 0=0
Convolution              convrelu_1               1 1 15 16 0=32 1=3 -23310=1,2.000000e-01 11=3 12=1 13=1 14=1 2=1 3=1 4=1 5=1 6=27648 9=2
Split                    splitncnn_2              1 3 16 17 18 19
Concat                   cat_1                    3 1 3 12 17 20 0=0
Convolution              convrelu_2               1 1 20 21 0=32 1=3 -23310=1,2.000000e-01 11=3 12=1 13=1 14=1 2=1 3=1 4=1 5=1 6=36864 9=2
Split                    splitncnn_3              1 2 21 22 23
Concat                   cat_2                    4 1 4 13 18 22 24 0=0
Convolution              convrelu_3               1 1 24 25 0=32 1=3 -23310=1,2.000000e-01 11=3 12=1 13=1 14=1 2=1 3=1 4=1 5=1 6=46080 9=2
Concat                   cat_3                    5 1 5 14 19 23 25 26 0=0
Convolution              conv_7                   1 1 26 27 0=64 1=3 11=3 12=1 13=1 14=1 2=1 3=1 4=1 5=1 6=110592
BinaryOp                 mul_0                    1 1 27 28 0=2 1=1 2=2.000000e-01
BinaryOp                 add_1                    2 1 28 6 29 0=0
Split                    splitncnn_4              1 6 29 30 31 32 33 34 35
Convolution              convrelu_4               1 1 35 36 0=32 1=3 -23310=1,2.000000e-01 11=3 12=1 13=1 14=1 2=1 3=1 4=1 5=1 6=18432 9=2
Split                    splitncnn_5              1 4 36 37 38 39 40
Concat                   cat_4                    2 1 30 37 41 0=0
Convolution              convrelu_5               1 1 41 42 0=32 1=3 -23310=1,2.000000e-01 11=3 12=1 13=1 14=1 2=1 3=1 4=1 5=1 6=27648 9=2
Split                    splitncnn_6              1 3 42 43 44 45
Concat                   cat_5                    3 1 31 38 43 46 0=0
Convolution              convrelu_6               1 1 46 47 0=32 1=3 -23310=1,2.000000e-01 11=3 12=1 13=1 14=1 2=1 3=1 4=1 5=1 6=36864 9=2
Split                    splitncnn_7              1 2 47 48 49
Concat                   cat_6                    4 1 32 39 44 48 50 0=0
Convolution              convrelu_7               1 1 50 51 0=32 1=3 -23310=1,2.000000e-01 11=3 12=1 13=1 14=1 2=1 3=1 4=1 5=1 6=46080 9=2
Concat                   cat_7                    5 1 33 40 45 49 51 52 0=0
Convolution              conv_12                  1 1 52 53 0=64 1=3 11=3 12=1 13=1 14=1 2=1 3=1 4=1 5=1 6=110592
BinaryOp                 mul_2                    1 1 53 54 0=2 1=1 2=2.000000e-01
BinaryOp                 add_3                    2 1 54 34 55 0=0
Split                    splitncnn_8              1 6 55 56 57 58 59 60 61
Convolution              convrelu_8               1 1 61 62 0=32 1=3 -23310=1,2.000000e-01 11=3 12=1 13=1 14=1 2=1 3=1 4=1 5=1 6=18432 9=2
Split                    splitncnn_9              1 4 62 63 64 65 66
Concat                   cat_8                    2 1 56 63 67 0=0
Convolution              convrelu_9               1 1 67 68 0=32 1=3 -23310=1,2.000000e-01 11=3 12=1 13=1 14=1 2=1 3=1 4=1 5=1 6=27648 9=2
Split                    splitncnn_10             1 3 68 69 70 71
Concat                   cat_9                    3 1 57 64 69 72 0=0
Convolution              convrelu_10              1 1 72 73 0=32 1=3 -23310=1,2.000000e-01 11=3 12=1 13=1 14=1 2=1 3=1 4=1 5=1 6=36864 9=2
Split                    splitncnn_11             1 2 73 74 75
Concat                   cat_10                   4 1 58 65 70 74 76 0=0
Convolution              convrelu_11              1 1 76 77 0=32 1=3 -23310=1,2.000000e-01 11=3 12=1 13=1 14=1 2=1 3=1 4=1 5=1 6=46080 9=2
Concat                   cat_11                   5 1 59 66 71 75 77 78 0=0
Convolution              conv_17                  1 1 78 79 0=64 1=3 11=3 12=1 13=1 14=1 2=1 3=1 4=1 5=1 6=110592
BinaryOp                 mul_4                    1 1 79 80 0=2 1=1 2=2.000000e-01
BinaryOp                 add_5                    2 1 80 60 81 0=0
BinaryOp                 mul_6                    1 1 81 82 0=2 1=1 2=2.000000e-01
BinaryOp                 add_7                    2 1 82 7 83 0=0
Split                    splitncnn_12             1 7 83 84 85 86 87 88 89 90
Convolution              convrelu_12              1 1 90 91 0=32 1=3 -23310=1,2.000000e-01 11=3 12=1 13=1 14=1 2=1 3=1 4=1 5=1 6=18432 9=2
Split                    splitncnn_13             1 4 91 92 93 94 95
Concat                   cat_12                   2 1 84 92 96 0=0
Convolution              convrelu_13              1 1 96 97 0=32 1=3 -23310=1,2.000000e-01 11=3 12=1 13=1 14=1 2=1 3=1 4=1 5=1 6=27648 9=2
Split                    splitncnn_14             1 3 97 98 99 100
Concat                   cat_13                   3 1 85 93 98 101 0=0
Convolution              convrelu_14              1 1 101 102 0=32 1=3 -23310=1,2.000000e-01 11=3 12=1 13=1 14=1 2=1 3=1 4=1 5=1 6=36864 9=2
Split                    splitncnn_15             1 2 102 103 104
Concat                   cat_14                   4 1 86 94 99 103 105 0=0
Convolution              convrelu_15              1 1 105 106 0=32 1=3 -23310=1,2.000000e-01 11=3 12=1 13=1 14=1 2=1 3=1 4=1 5=1 6=46080 9=2
Concat                   cat_15                   5 1 87 95 100 104 106 107 0=0
Convolution              conv_22                  1 1 107 108 0=64 1=3 11=3 12=1 13=1 14=1 2=1 3=1 4=1 5=1 6=110592
BinaryOp                 mul_8                    1 1 108 109 0=2 1=1 2=2.000000e-01
BinaryOp                 add_9                    2 1 109 88 110 0=0
Split                    splitncnn_16             1 6 110 111 112 113 114 115 116
Convolution              convrelu_16              1 1 116 117 0=32 1=3 -23310=1,2.000000e-01 11=3 12=1 13=1 14=1 2=1 3=1 4=1 5=1 6=18432 9=2
Split                    splitncnn_17             1 4 117 118 119 120 121
Concat                   cat_16                   2 1 111 118 122 0=0
Convolution              convrelu_17              1 1 122 123 0=32 1=3 -23310=1,2.000000e-01 11=3 12=1 13=1 14=1 2=1 3=1 4=1 5=1 6=27648 9=2
Split                    splitncnn_18             1 3 123 124 125 126
Concat                   cat_17                   3 1 112 119 124 127 0=0
Convolution              convrelu_18              1 1 127 128 0=32 1=3 -23310=1,2.000000e-01 11=3 12=1 13=1 14=1 2=1 3=1 4=1 5=1 6=36864 9=2
Split                    splitncnn_19             1 2 128 129 130
Concat                   cat_18                   4 1 113 120 125 129 131 0=0
Convolution              convrelu_19              1 1 131 132 0=32 1=3 -23310=1,2.000000e-01 11=3 12=1 13=1 14=1 2=1 3=1 4=1 5=1 6=46080 9=2
Concat                   cat_19                   5 1 114 121 126 130 132 133 0=0
Convolution              conv_27                  1 1 133 134 0=64 1=3 11=3 12=1 13=1 14=1 2=1 3=1 4=1 5=1 6=110592
BinaryOp                 mul_10                   1 1 134 135 0=2 1=1 2=2.000000e-01
BinaryOp                 add_11                   2 1 135 115 136 0=0
Split                    splitncnn_20             1 6 136 137 138 139 140 141 142
Convolution              convrelu_20              1 1 142 143 0=32 1=3 -23310=1,2.000000e-01 11=3 12=1 13=1 14=1 2=1 3=1 4=1 5=1 6=18432 9=2
Split                    splitncnn_21             1 4 143 144 145 146 147
Concat                   cat_20                   2 1 137 144 148 0=0
Convolution              convrelu_21              1 1 148 149 0=32 1=3 -23310=1,2.000000e-01 11=3 12=1 13=1 14=1 2=1 3=1 4=1 5=1 6=27648 9=2
Split                    splitncnn_22             1 3 149 150 151 152
Concat                   cat_21                   3 1 138 145 150 153 0=0
Convolution              convrelu_22              1 1 153 154 0=32 1=3 -23310=1,2.000000e-01 11=3 12=1 13=1 14=1 2=1 3=1 4=1 5=1 6=36864 9=2
Split                    splitncnn_23             1 2 154 155 156
Concat                   cat_22                   4 1 139 146 151 155 157 0=0
Convolution              convrelu_23              1 1 157 158 0=32 1=3 -23310=1,2.000000e-01 11=3 12=1 13=1 14=1 2=1 3=1 4=1 5=1 6=46080 9=2
Concat                   cat_23                   5 1 140 147 152 156 158 159 0=0
Convolution              conv_32                  1 1 159 160 0=64 1=3 11=3 12=1 13=1 14=1 2=1 3=1 4=1 5=1 6=110592
BinaryOp                 mul_12                   1 1 160 161 0=2 1=1 2=2.000000e-01
BinaryOp                 add_13                   2 1 161 141 162 0=0
BinaryOp                 mul_14                   1 1 162 163 0=2 1=1 2=2.000000e-01
BinaryOp                 add_15                   2 1 163 89 164 0=0
Split                    splitncnn_24             1 7 164 165 166 167 168 169 170 171
Convolution              convrelu_24              1 1 171 172 0=32 1=3 -23310=1,2.000000e-01 11=3 12=1 13=1 14=1 2=1 3=1 4=1 5=1 6=18432 9=2
Split                    splitncnn_25             1 4 172 173 174 175 176
Concat                   cat_24                   2 1 165 173 177 0=0
Convolution              convrelu_25              1 1 177 178 0=32 1=3 -23310=1,2.000000e-01 11=3 12=1 13=1 14=1 2=1 3=1 4=1 5=1 6=27648 9=2
Split                    splitncnn_26             1 3 178 179 180 181
Concat                   cat_25                   3 1 166 174 179 182 0=0
Convolution              convrelu_26              1 1 182 183 0=32 1=3 -23310=1,2.000000e-01 11=3 12=1 13=1 14=1 2=1 3=1 4=1 5=1 6=36864 9=2
Split                    splitncnn_27             1 2 183 184 185
Concat                   cat_26                   4 1 167 175 180 184 186 0=0
Convolution              convrelu_27              1 1 186 187 0=32 1=3 -23310=1,2.000000e-01 11=3 12=1 13=1 14=1 2=1 3=1 4=1 5=1 6=46080 9=2
Concat                   cat_27                   5 1 168 176 181 185 187 188 0=0
Convolution              conv_37                  1 1 188 189 0=64 1=3 11=3 12=1 13=1 14=1 2=1 3=1 4=1 5=1 6=110592
BinaryOp                 mul_16                   1 1 189 190 0=2 1=1 2=2.000000e-01
BinaryOp                 add_17                   2 1 190 169 191 0=0
Split                    splitncnn_28             1 6 191 192 193 194 195 196 197
Convolution              convrelu_28              1 1 197 198 0=32 1=3 -23310=1,2.000000e-01 11=3 12=1 13=1 14=1 2=1 3=1 4=1 5=1 6=18432 9=2
Split                    splitncnn_29             1 4 198 199 200 201 202
Concat                   cat_28                   2 1 192 199 203 0=0
Convolution              convrelu_29              1 1 203 204 0=32 1=3 -23310=1,2.000000e-01 11=3 12=1 13=1 14=1 2=1 3=1 4=1 5=1 6=27648 9=2
Split                    splitncnn_30             1 3 204 205 206 207
Concat                   cat_29                   3 1 193 200 205 208 0=0
Convolution              convrelu_30              1 1 208 209 0=32 1=3 -23310=1,2.000000e-01 11=3 12=1 13=1 14=1 2=1 3=1 4=1 5=1 6=36864 9=2
Split                    splitncnn_31             1 2 209 210 211
Concat                   cat_30                   4 1 194 201 206 210 212 0=0
Convolution              convrelu_31              1 1 212 213 0=32 1=3 -23310=1,2.000000e-01 11=3 12=1 13=1 14=1 2=1 3=1 4=1 5=1 6=46080 9=2
Concat                   cat_31                   5 1 195 202 207 211 213 214 0=0
Convolution              conv_42                  1 1 214 215 0=64 1=3 11=3 12=1 13=1 14=1 2=1 3=1 4=1 5=1 6=110592
BinaryOp                 mul_18                   1 1 215 216 0=2 1=1 2=2.000000e-01
BinaryOp                 add_19                   2 1 216 196 217 0=0
Split                    splitncnn_32             1 6 217 218 219 220 221 222 223
Convolution              convrelu_32              1 1 223 224 0=32 1=3 -23310=1,2.000000e-01 11=3 12=1 13=1 14=1 2=1 3=1 4=1 5=1 6=18432 9=2
Split                    splitncnn_33             1 4 224 225 226 227 228
Concat                   cat_32                   2 1 218 225 229 0=0
Convolution              convrelu_33              1 1 229 230 0=32 1=3 -23310=1,2.000000e-01 11=3 12=1 13=1 14=1 2=1 3=1 4=1 5=1 6=27648 9=2
Split                    splitncnn_34             1 3 230 231 232 233
Concat                   cat_33                   3 1 219 226 231 234 0=0
Convolution              convrelu_34              1 1 234 235 0=32 1=3 -23310=1,2.000000e-01 11=3 12=1 13=1 14=1 2=1 3=1 4=1 5=1 6=36864 9=2
Split                    splitncnn_35             1 2 235 236 237
Concat                   cat_34                   4 1 220 227 232 236 238 0=0
Convolution              convrelu_35              1 1 238 239 0=32 1=3 -23310=1,2.000000e-01 11=3 12=1 13=1 14=1 2=1 3=1 4=1 5=1 6=46080 9=2
Concat                   cat_35                   5 1 221 228 233 237 239 240 0=0
Convolution              conv_47                  1 1 240 241 0=64 1=3 11=3 12=1 13=1 14=1 2=1 3=1 4=1 5=1 6=110592
BinaryOp                 mul_20                   1 1 241 242 0=2 1=1 2=2.000000e-01
BinaryOp                 add_21                   2 1 242 222 243 0=0
BinaryOp                 mul_22                   1 1 243 244 0=2 1=1 2=2.000000e-01
BinaryOp                 add_23                   2 1 244 170 245 0=0
Split                    splitncnn_36             1 7 245 246 247 248 249 250 251 252
Convolution              convrelu_36              1 1 252 253 0=32 1=3 -23310=1,2.000000e-01 11=3 12=1 13=1 14=1 2=1 3=1 4=1 5=1 6=18432 9=2
Split                    splitncnn_37             1 4 253 254 255 256 257
Concat                   cat_36                   2 1 246 254 258 0=0
Convolution              convrelu_37              1 1 258 259 0=32 1=3 -23310=1,2.000000e-01 11=3 12=1 13=1 14=1 2=1 3=1 4=1 5=1 6=27648 9=2
Split                    splitncnn_38             1 3 259 260 261 262
Concat                   cat_37                   3 1 247 255 260 263 0=0
Convolution              convrelu_38              1 1 263 264 0=32 1=3 -23310=1,2.000000e-01 11=3 12=1 13=1 14=1 2=1 3=1 4=1 5=1 6=36864 9=2
Split                    splitncnn_39             1 2 264 265 266
Concat                   cat_38                   4 1 248 256 261 265 267 0=0
Convolution              convrelu_39              1 1 267 268 0=32 1=3 -23310=1,2.000000e-01 11=3 12=1 13=1 14=1 2=1 3=1 4=1 5=1 6=46080 9=2
Concat                   cat_39                   5 1 249 257 262 266 268 269 0=0
Convolution              conv_52                  1 1 269 270 0=64 1=3 11=3 12=1 13=1 14=1 2=1 3=1 4=1 5=1 6=110592
BinaryOp                 mul_24                   1 1 270 271 0=2 1=1 2=2.000000e-01
BinaryOp                 add_25                   2 1 271 250 272 0=0
Split                    splitncnn_40             1 6 272 273 274 275 276 277 278
Convolution              convrelu_40              1 1 278 279 0=32 1=3 -23310=1,2.000000e-01 11=3 12=1 13=1 14=1 2=1 3=1 4=1 5=1 6=18432 9=2
Split                    splitncnn_41             1 4 279 280 281 282 283
Concat                   cat_40                   2 1 273 280 284 0=0
Convolution              convrelu_41              1 1 284 285 0=32 1=3 -23310=1,2.000000e-01 11=3 12=1 13=1 14=1 2=1 3=1 4=1 5=1 6=27648 9=2
Split                    splitncnn_42             1 3 285 286 287 288
Concat                   cat_41                   3 1 274 281 286 289 0=0
Convolution              convrelu_42              1 1 289 290 0=32 1=3 -23310=1,2.000000e-01 11=3 12=1 13=1 14=1 2=1 3=1 4=1 5=1 6=36864 9=2
Split                    splitncnn_43             1 2 290 291 292
Concat                   cat_42                   4 1 275 282 287 291 293 0=0
Convolution              convrelu_43              1 1 293 294 0=32 1=3 -23310=1,2.000000e-01 11=3 12=1 13=1 14=1 2=1 3=1 4=1 5=1 6=46080 9=2
Concat                   cat_43                   5 1 276 283 288 292 294 295 0=0
Convolution              conv_57                  1 1 295 296 0=64 1=3 11=3 12=1 13=1 14=1 2=1 3=1 4=1 5=1 6=110592
BinaryOp                 mul_26                   1 1 296 297 0=2 1=1 2=2.000000e-01
BinaryOp                 add_27                   2 1 297 277 298 0=0
Split                    splitncnn_44             1 6 298 299 300 301 302 303 304
Convolution              convrelu_44              1 1 304 305 0=32 1=3 -23310=1,2.000000e-01 11=3 12=1 13=1 14=1 2=1 3=1 4=1 5=1 6=18432 9=2
Split                    splitncnn_45             1 4 305 306 307 308 309
Concat                   cat_44                   2 1 299 306 310 0=0
Convolution              convrelu_45              1 1 310 311 0=32 1=3 -23310=1,2.000000e-01 11=3 12=1 13=1 14=1 2=1 3=1 4=1 5=1 6=27648 9=2
Split                    splitncnn_46             1 3 311 312 313 314
Concat                   cat_45                   3 1 300 307 312 315 0=0
Convolution              convrelu_46              1 1 315 316 0=32 1=3 -23310=1,2.000000e-01 11=3 12=1 13=1 14=1 2=1 3=1 4=1 5=1 6=36864 9=2
Split                    splitncnn_47             1 2 316 317 318
Concat                   cat_46                   4 1 301 308 313 317 319 0=0
Convolution              convrelu_47              1 1 319 320 0=32 1=3 -23310=1,2.000000e-01 11=3 12=1 13=1 14=1 2=1 3=1 4=1 5=1 6=46080 9=2
Concat                   cat_47                   5 1 302 309 314 318 320 321 0=0
Convolution              conv_62                  1 1 321 322 0=64 1=3 11=3 12=1 13=1 14=1 2=1 3=1 4=1 5=1 6=110592
BinaryOp                 mul_28                   1 1 322 323 0=2 1=1 2=2.000000e-01
BinaryOp                 add_29                   2 1 323 303 324 0=0
BinaryOp                 mul_30                   1 1 324 325 0=2 1=1 2=2.000000e-01
BinaryOp                 add_31                   2 1 325 251 326 0=0
Split                    splitncnn_48             1 7 326 327 328 329 330 331 332 333
Convolution              convrelu_48              1 1 333 334 0=32 1=3 -23310=1,2.000000e-01 11=3 12=1 13=1 14=1 2=1 3=1 4=1 5=1 6=18432 9=2
Split                    splitncnn_49             1 4 334 335 336 337 338
Concat                   cat_48                   2 1 327 335 339 0=0
Convolution              convrelu_49              1 1 339 340 0=32 1=3 -23310=1,2.000000e-01 11=3 12=1 13=1 14=1 2=1 3=1 4=1 5=1 6=27648 9=2
Split                    splitncnn_50             1 3 340 341 342 343
Concat                   cat_49                   3 1 328 336 341 344 0=0
Convolution              convrelu_50              1 1 344 345 0=32 1=3 -23310=1,2.000000e-01 11=3 12=1 13=1 14=1 2=1 3=1 4=1 5=1 6=36864 9=2
Split                    splitncnn_51             1 2 345 346 347
Concat                   cat_50                   4 1 329 337 342 346 348 0=0
Convolution              convrelu_51              1 1 348 349 0=32 1=3 -23310=1,2.000000e-01 11=3 12=1 13=1 14=1 2=1 3=1 4=1 5=1 6=46080 9=2
Concat                   cat_51                   5 1 330 338 343 347 349 350 0=0
Convolution              conv_67                  1 1 350 351 0=64 1=3 11=3 12=1 13=1 14=1 2=1 3=1 4=1 5=1 6=110592
BinaryOp                 mul_32                   1 1 351 352 0=2 1=1 2=2.000000e-01
BinaryOp                 add_33                   2 1 352 331 353 0=0
Split                    splitncnn_52             1 6 353 354 355 356 357 358 359
Convolution              convrelu_52              1 1 359 360 0=32 1=3 -23310=1,2.000000e-01 11=3 12=1 13=1 14=1 2=1 3=1 4=1 5=1 6=18432 9=2
Split                    splitncnn_53             1 4 360 361 362 363 364
Concat                   cat_52                   2 1 354 361 365 0=0
Convolution              convrelu_53              1 1 365 366 0=32 1=3 -23310=1,2.000000e-01 11=3 12=1 13=1 14=1 2=1 3=1 4=1 5=1 6=27648 9=2
Split                    splitncnn_54             1 3 366 367 368 369
Concat                   cat_53                   3 1 355 362 367 370 0=0
Convolution              convrelu_54              1 1 370 371 0=32 1=3 -23310=1,2.000000e-01 11=3 12=1 13=1 14=1 2=1 3=1 4=1 5=1 6=36864 9=2
Split                    splitncnn_55             1 2 371 372 373
Concat                   cat_54                   4 1 356 363 368 372 374 0=0
Convolution              convrelu_55              1 1 374 375 0=32 1=3 -23310=1,2.000000e-01 11=3 12=1 13=1 14=1 2=1 3=1 4=1 5=1 6=46080 9=2
Concat                   cat_55                   5 1 357 364 369 373 375 376 0=0
Convolution              conv_72                  1 1 376 377 0=64 1=3 11=3 12=1 13=1 14=1 2=1 3=1 4=1 5=1 6=110592
BinaryOp                 mul_34                   1 1 377 378 0=2 1=1 2=2.000000e-01
BinaryOp                 add_35                   2 1 378 358 379 0=0
Split                    splitncnn_56             1 6 379 380 381 382 383 384 385
Convolution              convrelu_56              1 1 385 386 0=32 1=3 -23310=1,2.000000e-01 11=3 12=1 13=1 14=1 2=1 3=1 4=1 5=1 6=18432 9=2
Split                    splitncnn_57             1 4 386 387 388 389 390
Concat                   cat_56                   2 1 380 387 391 0=0
Convolution              convrelu_57              1 1 391 392 0=32 1=3 -23310=1,2.000000e-01 11=3 12=1 13=1 14=1 2=1 3=1 4=1 5=1 6=27648 9=2
Split                    splitncnn_58             1 3 392 393 394 395
Concat                   cat_57                   3 1 381 388 393 396 0=0
Convolution              convrelu_58              1 1 396 397 0=32 1=3 -23310=1,2.000000e-01 11=3 12=1 13=1 14=1 2=1 3=1 4=1 5=1 6=36864 9=2
Split                    splitncnn_59             1 2 397 398 399
Concat                   cat_58                   4 1 382 389 394 398 400 0=0
Convolution              convrelu_59              1 1 400 401 0=32 1=3 -23310=1,2.000000e-01 11=3 12=1 13=1 14=1 2=1 3=1 4=1 5=1 6=46080 9=2
Concat                   cat_59                   5 1 383 390 395 399 401 402 0=0
Convolution              conv_77                  1 1 402 403 0=64 1=3 11=3 12=1 13=1 14=1 2=1 3=1 4=1 5=1 6=110592
BinaryOp                 mul_36                   1 1 403 404 0=2 1=1 2=2.000000e-01
BinaryOp                 add_37                   2 1 404 384 405 0=0
BinaryOp                 mul_38                   1 1 405 406 0=2 1=1 2=2.000000e-01
BinaryOp                 add_39                   2 1 406 332 407 0=0
Split                    splitncnn_60             1 7 407 408 409 410 411 412 413 414
Convolution              convrelu_60              1 1 414 415 0=32 1=3 -23310=1,2.000000e-01 11=3 12=1 13=1 14=1 2=1 3=1 4=1 5=1 6=18432 9=2
Split                    splitncnn_61             1 4 415 416 417 418 419
Concat                   cat_60                   2 1 408 416 420 0=0
Convolution              convrelu_61              1 1 420 421 0=32 1=3 -23310=1,2.000000e-01 11=3 12=1 13=1 14=1 2=1 3=1 4=1 5=1 6=27648 9=2
Split                    splitncnn_62             1 3 421 422 423 424
Concat                   cat_61                   3 1 409 417 422 425 0=0
Convolution              convrelu_62              1 1 425 426 0=32 1=3 -23310=1,2.000000e-01 11=3 12=1 13=1 14=1 2=1 3=1 4=1 5=1 6=36864 9=2
Split                    splitncnn_63             1 2 426 427 428
Concat                   cat_62                   4 1 410 418 423 427 429 0=0
Convolution              convrelu_63              1 1 429 430 0=32 1=3 -23310=1,2.000000e-01 11=3 12=1 13=1 14=1 2=1 3=1 4=1 5=1 6=46080 9=2
Concat                   cat_63                   5 1 411 419 424 428 430 431 0=0
Convolution              conv_82                  1 1 431 432 0=64 1=3 11=3 12=1 13=1 14=1 2=1 3=1 4=1 5=1 6=110592
BinaryOp                 mul_40                   1 1 432 433 0=2 1=1 2=2.000000e-01
BinaryOp                 add_41                   2 1 433 412 434 0=0
Split                    splitncnn_64             1 6 434 435 436 437 438 439 440
Convolution              convrelu_64              1 1 440 441 0=32 1=3 -23310=1,2.000000e-01 11=3 12=1 13=1 14=1 2=1 3=1 4=1 5=1 6=18432 9=2
Split                    splitncnn_65             1 4 441 442 443 444 445
Concat                   cat_64                   2 1 435 442 446 0=0
Convolution              convrelu_65              1 1 446 447 0=32 1=3 -23310=1,2.000000e-01 11=3 12=1 13=1 14=1 2=1 3=1 4=1 5=1 6=27648 9=2
Split                    splitncnn_66             1 3 447 448 449 450
Concat                   cat_65                   3 1 436 443 448 451 0=0
Convolution              convrelu_66              1 1 451 452 0=32 1=3 -23310=1,2.000000e-01 11=3 12=1 13=1 14=1 2=1 3=1 4=1 5=1 6=36864 9=2
Split                    splitncnn_67             1 2 452 453 454
Concat                   cat_66                   4 1 437 444 449 453 455 0=0
Convolution              convrelu_67              1 1 455 456 0=32 1=3 -23310=1,2.000000e-01 11=3 12=1 13=1 14=1 2=1 3=1 4=1 5=1 6=46080 9=2
Concat                   cat_67                   5 1 438 445 450 454 456 457 0=0
Convolution              conv_87                  1 1 457 458 0=64 1=3 11=3 12=1 13=1 14=1 2=1 3=1 4=1 5=1 6=110592
BinaryOp                 mul_42                   1 1 458 459 0=2 1=1 2=2.000000e-01
BinaryOp                 add_43                   2 1 459 439 460 0=0
Split                    splitncnn_68             1 6 460 461 462 463 464 465 466
Convolution              convrelu_68              1 1 466 467 0=32 1=3 -23310=1,2.000000e-01 11=3 12=1 13=1 14=1 2=1 3=1 4=1 5=1 6=18432 9=2
Split                    splitncnn_69             1 4 467 468 469 470 471
Concat                   cat_68                   2 1 461 468 472 0=0
Convolution              convrelu_69              1 1 472 473 0=32 1=3 -23310=1,2.000000e-01 11=3 12=1 13=1 14=1 2=1 3=1 4=1 5=1 6=27648 9=2
Split                    splitncnn_70             1 3 473 474 475 476
Concat                   cat_69                   3 1 462 469 474 477 0=0
Convolution              convrelu_70              1 1 477 478 0=32 1=3 -23310=1,2.000000e-01 11=3 12=1 13=1 14=1 2=1 3=1 4=1 5=1 6=36864 9=2
Split                    splitncnn_71             1 2 478 479 480
Concat                   cat_70                   4 1 463 470 475 479 481 0=0
Convolution              convrelu_71              1 1 481 482 0=32 1=3 -23310=1,2.000000e-01 11=3 12=1 13=1 14=1 2=1 3=1 4=1 5=1 6=46080 9=2
Concat                   cat_71                   5 1 464 471 476 480 482 483 0=0
Convolution              conv_92                  1 1 483 484 0=64 1=3 11=3 12=1 13=1 14=1 2=1 3=1 4=1 5=1 6=110592
BinaryOp                 mul_44                   1 1 484 485 0=2 1=1 2=2.000000e-01
BinaryOp                 add_45                   2 1 485 465 486 0=0
BinaryOp                 mul_46                   1 1 486 487 0=2 1=1 2=2.000000e-01
BinaryOp                 add_47                   2 1 487 413 488 0=0
Split                    splitncnn_72             1 7 488 489 490 491 492 493 494 495
Convolution              convrelu_72              1 1 495 496 0=32 1=3 -23310=1,2.000000e-01 11=3 12=1 13=1 14=1 2=1 3=1 4=1 5=1 6=18432 9=2
Split                    splitncnn_73             1 4 496 497 498 499 500
Concat                   cat_72                   2 1 489 497 501 0=0
Convolution              convrelu_73              1 1 501 502 0=32 1=3 -23310=1,2.000000e-01 11=3 12=1 13=1 14=1 2=1 3=1 4=1 5=1 6=27648 9=2
Split                    splitncnn_74             1 3 502 503 504 505
Concat                   cat_73                   3 1 490 498 503 506 0=0
Convolution              convrelu_74              1 1 506 507 0=32 1=3 -23310=1,2.000000e-01 11=3 12=1 13=1 14=1 2=1 3=1 4=1 5=1 6=36864 9=2
Split                    splitncnn_75             1 2 507 508 509
Concat                   cat_74                   4 1 491 499 504 508 510 0=0
Convolution              convrelu_75              1 1 510 511 0=32 1=3 -23310=1,2.000000e-01 11=3 12=1 13=1 14=1 2=1 3=1 4=1 5=1 6=46080 9=2
Concat                   cat_75                   5 1 492 500 505 509 511 512 0=0
Convolution              conv_97                  1 1 512 513 0=64 1=3 11=3 12=1 13=1 14=1 2=1 3=1 4=1 5=1 6=110592
BinaryOp                 mul_48                   1 1 513 514 0=2 1=1 2=2.000000e-01
BinaryOp                 add_49                   2 1 514 493 515 0=0
Split                    splitncnn_76             1 6 515 516 517 518 519 520 521
Convolution              convrelu_76              1 1 521 522 0=32 1=3 -23310=1,2.000000e-01 11=3 12=1 13=1 14=1 2=1 3=1 4=1 5=1 6=18432 9=2
Split                    splitncnn_77             1 4 522 523 524 525 526
Concat                   cat_76                   2 1 516 523 527 0=0
Convolution              convrelu_77              1 1 527 528 0=32 1=3 -23310=1,2.000000e-01 11=3 12=1 13=1 14=1 2=1 3=1 4=1 5=1 6=27648 9=2
Split                    splitncnn_78             1 3 528 529 530 531
Concat                   cat_77                   3 1 517 524 529 532 0=0
Convolution              convrelu_78              1 1 532 533 0=32 1=3 -23310=1,2.000000e-01 11=3 12=1 13=1 14=1 2=1 3=1 4=1 5=1 6=36864 9=2
Split                    splitncnn_79             1 2 533 534 535
Concat                   cat_78                   4 1 518 525 530 534 536 0=0
Convolution              convrelu_79              1 1 536 537 0=32 1=3 -23310=1,2.000000e-01 11=3 12=1 13=1 14=1 2=1 3=1 4=1 5=1 6=46080 9=2
Concat                   cat_79                   5 1 519 526 531 535 537 538 0=0
Convolution              conv_102                 1 1 538 539 0=64 1=3 11=3 12=1 13=1 14=1 2=1 3=1 4=1 5=1 6=110592
BinaryOp                 mul_50                   1 1 539 540 0=2 1=1 2=2.000000e-01
BinaryOp                 add_51                   2 1 540 520 541 0=0
Split                    splitncnn_80             1 6 541 542 543 544 545 546 547
Convolution              convrelu_80              1 1 547 548 0=32 1=3 -23310=1,2.000000e-01 11=3 12=1 13=1 14=1 2=1 3=1 4=1 5=1 6=18432 9=2
Split                    splitncnn_81             1 4 548 549 550 551 552
Concat                   cat_80                   2 1 542 549 553 0=0
Convolution              convrelu_81              1 1 553 554 0=32 1=3 -23310=1,2.000000e-01 11=3 12=1 13=1 14=1 2=1 3=1 4=1 5=1 6=27648 9=2
Split                    splitncnn_82             1 3 554 555 556 557
Concat                   cat_81                   3 1 543 550 555 558 0=0
Convolution              convrelu_82              1 1 558 559 0=32 1=3 -23310=1,2.000000e-01 11=3 12=1 13=1 14=1 2=1 3=1 4=1 5=1 6=36864 9=2
Split                    splitncnn_83             1 2 559 560 561
Concat                   cat_82                   4 1 544 551 556 560 562 0=0
Convolution              convrelu_83              1 1 562 563 0=32 1=3 -23310=1,2.000000e-01 11=3 12=1 13=1 14=1 2=1 3=1 4=1 5=1 6=46080 9=2
Concat                   cat_83                   5 1 545 552 557 561 563 564 0=0
Convolution              conv_107                 1 1 564 565 0=64 1=3 11=3 12=1 13=1 14=1 2=1 3=1 4=1 5=1 6=110592
BinaryOp                 mul_52                   1 1 565 566 0=2 1=1 2=2.000000e-01
BinaryOp                 add_53                   2 1 566 546 567 0=0
BinaryOp                 mul_54                   1 1 567 568 0=2 1=1 2=2.000000e-01
BinaryOp                 add_55                   2 1 568 494 569 0=0
Split                    splitncnn_84             1 7 569 570 571 572 573 574 575 576
Convolution              convrelu_84              1 1 576 577 0=32 1=3 -23310=1,2.000000e-01 11=3 12=1 13=1 14=1 2=1 3=1 4=1 5=1 6=18432 9=2
Split                    splitncnn_85             1 4 577 578 579 580 581
Concat                   cat_84                   2 1 570 578 582 0=0
Convolution              convrelu_85              1 1 582 583 0=32 1=3 -23310=1,2.000000e-01 11=3 12=1 13=1 14=1 2=1 3=1 4=1 5=1 6=27648 9=2
Split                    splitncnn_86             1 3 583 584 585 586
Concat                   cat_85                   3 1 571 579 584 587 0=0
Convolution              convrelu_86              1 1 587 588 0=32 1=3 -23310=1,2.000000e-01 11=3 12=1 13=1 14=1 2=1 3=1 4=1 5=1 6=36864 9=2
Split                    splitncnn_87             1 2 588 589 590
Concat                   cat_86                   4 1 572 580 585 589 591 0=0
Convolution              convrelu_87              1 1 591 592 0=32 1=3 -23310=1,2.000000e-01 11=3 12=1 13=1 14=1 2=1 3=1 4=1 5=1 6=46080 9=2
Concat                   cat_87                   5 1 573 581 586 590 592 593 0=0
Convolution              conv_112                 1 1 593 594 0=64 1=3 11=3 12=1 13=1 14=1 2=1 3=1 4=1 5=1 6=110592
BinaryOp                 mul_56                   1 1 594 595 0=2 1=1 2=2.000000e-01
BinaryOp                 add_57                   2 1 595 574 596 0=0
Split                    splitncnn_88             1 6 596 597 598 599 600 601 602
Convolution              convrelu_88              1 1 602 603 0=32 1=3 -23310=1,2.000000e-01 11=3 12=1 13=1 14=1 2=1 3=1 4=1 5=1 6=18432 9=2
Split                    splitncnn_89             1 4 603 604 605 606 607
Concat                   cat_88                   2 1 597 604 608 0=0
Convolution              convrelu_89              1 1 608 609 0=32 1=3 -23310=1,2.000000e-01 11=3 12=1 13=1 14=1 2=1 3=1 4=1 5=1 6=27648 9=2
Split                    splitncnn_90             1 3 609 610 611 612
Concat                   cat_89                   3 1 598 605 610 613 0=0
Convolution              convrelu_90              1 1 613 614 0=32 1=3 -23310=1,2.000000e-01 11=3 12=1 13=1 14=1 2=1 3=1 4=1 5=1 6=36864 9=2
Split                    splitncnn_91             1 2 614 615 616
Concat                   cat_90                   4 1 599 606 611 615 617 0=0
Convolution              convrelu_91              1 1 617 618 0=32 1=3 -23310=1,2.000000e-01 11=3 12=1 13=1 14=1 2=1 3=1 4=1 5=1 6=46080 9=2
Concat                   cat_91                   5 1 600 607 612 616 618 619 0=0
Convolution              conv_117                 1 1 619 620 0=64 1=3 11=3 12=1 13=1 14=1 2=1 3=1 4=1 5=1 6=110592
BinaryOp                 mul_58                   1 1 620 621 0=2 1=1 2=2.000000e-01
BinaryOp                 add_59                   2 1 621 601 622 0=0
Split                    splitncnn_92             1 6 622 623 624 625 626 627 628
Convolution              convrelu_92              1 1 628 629 0=32 1=3 -23310=1,2.000000e-01 11=3 12=1 13=1 14=1 2=1 3=1 4=1 5=1 6=18432 9=2
Split                    splitncnn_93             1 4 629 630 631 632 633
Concat                   cat_92                   2 1 623 630 634 0=0
Convolution              convrelu_93              1 1 634 635 0=32 1=3 -23310=1,2.000000e-01 11=3 12=1 13=1 14=1 2=1 3=1 4=1 5=1 6=27648 9=2
Split                    splitncnn_94             1 3 635 636 637 638
Concat                   cat_93                   3 1 624 631 636 639 0=0
Convolution              convrelu_94              1 1 639 640 0=32 1=3 -23310=1,2.000000e-01 11=3 12=1 13=1 14=1 2=1 3=1 4=1 5=1 6=36864 9=2
Split                    splitncnn_95             1 2 640 641 642
Concat                   cat_94                   4 1 625 632 637 641 643 0=0
Convolution              convrelu_95              1 1 643 644 0=32 1=3 -23310=1,2.000000e-01 11=3 12=1 13=1 14=1 2=1 3=1 4=1 5=1 6=46080 9=2
Concat                   cat_95                   5 1 626 633 638 642 644 645 0=0
Convolution              conv_122                 1 1 645 646 0=64 1=3 11=3 12=1 13=1 14=1 2=1 3=1 4=1 5=1 6=110592
BinaryOp                 mul_60                   1 1 646 647 0=2 1=1 2=2.000000e-01
BinaryOp                 add_61                   2 1 647 627 648 0=0
BinaryOp                 mul_62                   1 1 648 649 0=2 1=1 2=2.000000e-01
BinaryOp                 add_63                   2 1 649 575 650 0=0
Split                    splitncnn_96             1 7 650 651 652 653 654 655 656 657
Convolution              convrelu_96              1 1 657 658 0=32 1=3 -23310=1,2.000000e-01 11=3 12=1 13=1 14=1 2=1 3=1 4=1 5=1 6=18432 9=2
Split                    splitncnn_97             1 4 658 659 660 661 662
Concat                   cat_96                   2 1 651 659 663 0=0
Convolution              convrelu_97              1 1 663 664 0=32 1=3 -23310=1,2.000000e-01 11=3 12=1 13=1 14=1 2=1 3=1 4=1 5=1 6=27648 9=2
Split                    splitncnn_98             1 3 664 665 666 667
Concat                   cat_97                   3 1 652 660 665 668 0=0
Convolution              convrelu_98              1 1 668 669 0=32 1=3 -23310=1,2.000000e-01 11=3 12=1 13=1 14=1 2=1 3=1 4=1 5=1 6=36864 9=2
Split                    splitncnn_99             1 2 669 670 671
Concat                   cat_98                   4 1 653 661 666 670 672 0=0
Convolution              convrelu_99              1 1 672 673 0=32 1=3 -23310=1,2.000000e-01 11=3 12=1 13=1 14=1 2=1 3=1 4=1 5=1 6=46080 9=2
Concat                   cat_99                   5 1 654 662 667 671 673 674 0=0
Convolution              conv_127                 1 1 674 675 0=64 1=3 11=3 12=1 13=1 14=1 2=1 3=1 4=1 5=1 6=110592
BinaryOp                 mul_64                   1 1 675 676 0=2 1=1 2=2.000000e-01
BinaryOp                 add_65                   2 1 676 655 677 0=0
Split                    splitncnn_100            1 6 677 678 679 680 681 682 683
Convolution              convrelu_100             1 1 683 684 0=32 1=3 -23310=1,2.000000e-01 11=3 12=1 13=1 14=1 2=1 3=1 4=1 5=1 6=18432 9=2
Split                    splitncnn_101            1 4 684 685 686 687 688
Concat                   cat_100                  2 1 678 685 689 0=0
Convolution              convrelu_101             1 1 689 690 0=32 1=3 -23310=1,2.000000e-01 11=3 12=1 13=1 14=1 2=1 3=1 4=1 5=1 6=27648 9=2
Split                    splitncnn_102            1 3 690 691 692 693
Concat                   cat_101                  3 1 679 686 691 694 0=0
Convolution              convrelu_102             1 1 694 695 0=32 1=3 -23310=1,2.000000e-01 11=3 12=1 13=1 14=1 2=1 3=1 4=1 5=1 6=36864 9=2
Split                    splitncnn_103            1 2 695 696 697
Concat                   cat_102                  4 1 680 687 692 696 698 0=0
Convolution              convrelu_103             1 1 698 699 0=32 1=3 -23310=1,2.000000e-01 11=3 12=1 13=1 14=1 2=1 3=1 4=1 5=1 6=46080 9=2
Concat                   cat_103                  5 1 681 688 693 697 699 700 0=0
Convolution              conv_132                 1 1 700 701 0=64 1=3 11=3 12=1 13=1 14=1 2=1 3=1 4=1 5=1 6=110592
BinaryOp                 mul_66                   1 1 701 702 0=2 1=1 2=2.000000e-01
BinaryOp                 add_67                   2 1 702 682 703 0=0
Split                    splitncnn_104            1 6 703 704 705 706 707 708 709
Convolution              convrelu_104             1 1 709 710 0=32 1=3 -23310=1,2.000000e-01 11=3 12=1 13=1 14=1 2=1 3=1 4=1 5=1 6=18432 9=2
Split                    splitncnn_105            1 4 710 711 712 713 714
Concat                   cat_104                  2 1 704 711 715 0=0
Convolution              convrelu_105             1 1 715 716 0=32 1=3 -23310=1,2.000000e-01 11=3 12=1 13=1 14=1 2=1 3=1 4=1 5=1 6=27648 9=2
Split                    splitncnn_106            1 3 716 717 718 719
Concat                   cat_105                  3 1 705 712 717 720 0=0
Convolution              convrelu_106             1 1 720 721 0=32 1=3 -23310=1,2.000000e-01 11=3 12=1 13=1 14=1 2=1 3=1 4=1 5=1 6=36864 9=2
Split                    splitncnn_107            1 2 721 722 723
Concat                   cat_106                  4 1 706 713 718 722 724 0=0
Convolution              convrelu_107             1 1 724 725 0=32 1=3 -23310=1,2.000000e-01 11=3 12=1 13=1 14=1 2=1 3=1 4=1 5=1 6=46080 9=2
Concat                   cat_107                  5 1 707 714 719 723 725 726 0=0
Convolution              conv_137                 1 1 726 727 0=64 1=3 11=3 12=1 13=1 14=1 2=1 3=1 4=1 5=1 6=110592
BinaryOp                 mul_68                   1 1 727 728 0=2 1=1 2=2.000000e-01
BinaryOp                 add_69                   2 1 728 708 729 0=0
BinaryOp                 mul_70                   1 1 729 730 0=2 1=1 2=2.000000e-01
BinaryOp                 add_71                   2 1 730 656 731 0=0
Split                    splitncnn_108            1 7 731 732 733 734 735 736 737 738
Convolution              convrelu_108             1 1 738 739 0=32 1=3 -23310=1,2.000000e-01 11=3 12=1 13=1 14=1 2=1 3=1 4=1 5=1 6=18432 9=2
Split                    splitncnn_109            1 4 739 740 741 742 743
Concat                   cat_108                  2 1 732 740 744 0=0
Convolution              convrelu_109             1 1 744 745 0=32 1=3 -23310=1,2.000000e-01 11=3 12=1 13=1 14=1 2=1 3=1 4=1 5=1 6=27648 9=2
Split                    splitncnn_110            1 3 745 746 747 748
Concat                   cat_109                  3 1 733 741 746 749 0=0
Convolution              convrelu_110             1 1 749 750 0=32 1=3 -23310=1,2.000000e-01 11=3 12=1 13=1 14=1 2=1 3=1 4=1 5=1 6=36864 9=2
Split                    splitncnn_111            1 2 750 751 752
Concat                   cat_110                  4 1 734 742 747 751 753 0=0
Convolution              convrelu_111             1 1 753 754 0=32 1=3 -23310=1,2.000000e-01 11=3 12=1 13=1 14=1 2=1 3=1 4=1 5=1 6=46080 9=2
Concat                   cat_111                  5 1 735 743 748 752 754 755 0=0
Convolution              conv_142                 1 1 755 756 0=64 1=3 11=3 12=1 13=1 14=1 2=1 3=1 4=1 5=1 6=110592
BinaryOp                 mul_72                   1 1 756 757 0=2 1=1 2=2.000000e-01
BinaryOp                 add_73                   2 1 757 736 758 0=0
Split                    splitncnn_112            1 6 758 759 760 761 762 763 764
Convolution              convrelu_112             1 1 764 765 0=32 1=3 -23310=1,2.000000e-01 11=3 12=1 13=1 14=1 2=1 3=1 4=1 5=1 6=18432 9=2
Split                    splitncnn_113            1 4 765 766 767 768 769
Concat                   cat_112                  2 1 759 766 770 0=0
Convolution              convrelu_113             1 1 770 771 0=32 1=3 -23310=1,2.000000e-01 11=3 12=1 13=1 14=1 2=1 3=1 4=1 5=1 6=27648 9=2
Split                    splitncnn_114            1 3 771 772 773 774
Concat                   cat_113                  3 1 760 767 772 775 0=0
Convolution              convrelu_114             1 1 775 776 0=32 1=3 -23310=1,2.000000e-01 11=3 12=1 13=1 14=1 2=1 3=1 4=1 5=1 6=36864 9=2
Split                    splitncnn_115            1 2 776 777 778
Concat                   cat_114                  4 1 761 768 773 777 779 0=0
Convolution              convrelu_115             1 1 779 780 0=32 1=3 -23310=1,2.000000e-01 11=3 12=1 13=1 14=1 2=1 3=1 4=1 5=1 6=46080 9=2
Concat                   cat_115                  5 1 762 769 774 778 780 781 0=0
Convolution              conv_147                 1 1 781 782 0=64 1=3 11=3 12=1 13=1 14=1 2=1 3=1 4=1 5=1 6=110592
BinaryOp                 mul_74                   1 1 782 783 0=2 1=1 2=2.000000e-01
BinaryOp                 add_75                   2 1 783 763 784 0=0
Split                    splitncnn_116            1 6 784 785 786 787 788 789 790
Convolution              convrelu_116             1 1 790 791 0=32 1=3 -23310=1,2.000000e-01 11=3 12=1 13=1 14=1 2=1 3=1 4=1 5=1 6=18432 9=2
Split                    splitncnn_117            1 4 791 792 793 794 795
Concat                   cat_116                  2 1 785 792 796 0=0
Convolution              convrelu_117             1 1 796 797 0=32 1=3 -23310=1,2.000000e-01 11=3 12=1 13=1 14=1 2=1 3=1 4=1 5=1 6=27648 9=2
Split                    splitncnn_118            1 3 797 798 799 800
Concat                   cat_117                  3 1 786 793 798 801 0=0
Convolution              convrelu_118             1 1 801 802 0=32 1=3 -23310=1,2.000000e-01 11=3 12=1 13=1 14=1 2=1 3=1 4=1 5=1 6=36864 9=2
Split                    splitncnn_119            1 2 802 803 804
Concat                   cat_118                  4 1 787 794 799 803 805 0=0
Convolution              convrelu_119             1 1 805 806 0=32 1=3 -23310=1,2.000000e-01 11=3 12=1 13=1 14=1 2=1 3=1 4=1 5=1 6=46080 9=2
Concat                   cat_119                  5 1 788 795 800 804 806 807 0=0
Convolution              conv_152                 1 1 807 808 0=64 1=3 11=3 12=1 13=1 14=1 2=1 3=1 4=1 5=1 6=110592
BinaryOp                 mul_76                   1 1 808 809 0=2 1=1 2=2.000000e-01
BinaryOp                 add_77                   2 1 809 789 810 0=0
BinaryOp                 mul_78                   1 1 810 811 0=2 1=1 2=2.000000e-01
BinaryOp                 add_79                   2 1 811 737 812 0=0
Split                    splitncnn_120            1 7 812 813 814 815 816 817 818 819
Convolution              convrelu_120             1 1 819 820 0=32 1=3 -23310=1,2.000000e-01 11=3 12=1 13=1 14=1 2=1 3=1 4=1 5=1 6=18432 9=2
Split                    splitncnn_121            1 4 820 821 822 823 824
Concat                   cat_120                  2 1 813 821 825 0=0
Convolution              convrelu_121             1 1 825 826 0=32 1=3 -23310=1,2.000000e-01 11=3 12=1 13=1 14=1 2=1 3=1 4=1 5=1 6=27648 9=2
Split                    splitncnn_122            1 3 826 827 828 829
Concat                   cat_121                  3 1 814 822 827 830 0=0
Convolution              convrelu_122             1 1 830 831 0=32 1=3 -23310=1,2.000000e-01 11=3 12=1 13=1 14=1 2=1 3=1 4=1 5=1 6=36864 9=2
Split                    splitncnn_123            1 2 831 832 833
Concat                   cat_122                  4 1 815 823 828 832 834 0=0
Convolution              convrelu_123             1 1 834 835 0=32 1=3 -23310=1,2.000000e-01 11=3 12=1 13=1 14=1 2=1 3=1 4=1 5=1 6=46080 9=2
Concat                   cat_123                  5 1 816 824 829 833 835 836 0=0
Convolution              conv_157                 1 1 836 837 0=64 1=3 11=3 12=1 13=1 14=1 2=1 3=1 4=1 5=1 6=110592
BinaryOp                 mul_80                   1 1 837 838 0=2 1=1 2=2.000000e-01
BinaryOp                 add_81                   2 1 838 817 839 0=0
Split                    splitncnn_124            1 6 839 840 841 842 843 844 845
Convolution              convrelu_124             1 1 845 846 0=32 1=3 -23310=1,2.000000e-01 11=3 12=1 13=1 14=1 2=1 3=1 4=1 5=1 6=18432 9=2
Split                    splitncnn_125            1 4 846 847 848 849 850
Concat                   cat_124                  2 1 840 847 851 0=0
Convolution              convrelu_125             1 1 851 852 0=32 1=3 -23310=1,2.000000e-01 11=3 12=1 13=1 14=1 2=1 3=1 4=1 5=1 6=27648 9=2
Split                    splitncnn_126            1 3 852 853 854 855
Concat                   cat_125                  3 1 841 848 853 856 0=0
Convolution              convrelu_126             1 1 856 857 0=32 1=3 -23310=1,2.000000e-01 11=3 12=1 13=1 14=1 2=1 3=1 4=1 5=1 6=36864 9=2
Split                    splitncnn_127            1 2 857 858 859
Concat                   cat_126                  4 1 842 849 854 858 860 0=0
Convolution              convrelu_127             1 1 860 861 0=32 1=3 -23310=1,2.000000e-01 11=3 12=1 13=1 14=1 2=1 3=1 4=1 5=1 6=46080 9=2
Concat                   cat_127                  5 1 843 850 855 859 861 862 0=0
Convolution              conv_162                 1 1 862 863 0=64 1=3 11=3 12=1 13=1 14=1 2=1 3=1 4=1 5=1 6=110592
BinaryOp                 mul_82                   1 1 863 864 0=2 1=1 2=2.000000e-01
BinaryOp                 add_83                   2 1 864 844 865 0=0
Split                    splitncnn_128            1 6 865 866 867 868 869 870 871
Convolution              convrelu_128             1 1 871 872 0=32 1=3 -23310=1,2.000000e-01 11=3 12=1 13=1 14=1 2=1 3=1 4=1 5=1 6=18432 9=2
Split                    splitncnn_129            1 4 872 873 874 875 876
Concat                   cat_128                  2 1 866 873 877 0=0
Convolution              convrelu_129             1 1 877 878 0=32 1=3 -23310=1,2.000000e-01 11=3 12=1 13=1 14=1 2=1 3=1 4=1 5=1 6=27648 9=2
Split                    splitncnn_130            1 3 878 879 880 881
Concat                   cat_129                  3 1 867 874 879 882 0=0
Convolution              convrelu_130             1 1 882 883 0=32 1=3 -23310=1,2.000000e-01 11=3 12=1 13=1 14=1 2=1 3=1 4=1 5=1 6=36864 9=2
Split                    splitncnn_131            1 2 883 884 885
Concat                   cat_130                  4 1 868 875 880 884 886 0=0
Convolution              convrelu_131             1 1 886 887 0=32 1=3 -23310=1,2.000000e-01 11=3 12=1 13=1 14=1 2=1 3=1 4=1 5=1 6=46080 9=2
Concat                   cat_131                  5 1 869 876 881 885 887 888 0=0
Convolution              conv_167                 1 1 888 889 0=64 1=3 11=3 12=1 13=1 14=1 2=1 3=1 4=1 5=1 6=110592
BinaryOp                 mul_84                   1 1 889 890 0=2 1=1 2=2.000000e-01
BinaryOp                 add_85                   2 1 890 870 891 0=0
BinaryOp                 mul_86                   1 1 891 892 0=2 1=1 2=2.000000e-01
BinaryOp                 add_87                   2 1 892 818 893 0=0
Split                    splitncnn_132            1 7 893 894 895 896 897 898 899 900
Convolution              convrelu_132             1 1 900 901 0=32 1=3 -23310=1,2.000000e-01 11=3 12=1 13=1 14=1 2=1 3=1 4=1 5=1 6=18432 9=2
Split                    splitncnn_133            1 4 901 902 903 904 905
Concat                   cat_132                  2 1 894 902 906 0=0
Convolution              convrelu_133             1 1 906 907 0=32 1=3 -23310=1,2.000000e-01 11=3 12=1 13=1 14=1 2=1 3=1 4=1 5=1 6=27648 9=2
Split                    splitncnn_134            1 3 907 908 909 910
Concat                   cat_133                  3 1 895 903 908 911 0=0
Convolution              convrelu_134             1 1 911 912 0=32 1=3 -23310=1,2.000000e-01 11=3 12=1 13=1 14=1 2=1 3=1 4=1 5=1 6=36864 9=2
Split                    splitncnn_135            1 2 912 913 914
Concat                   cat_134                  4 1 896 904 909 913 915 0=0
Convolution              convrelu_135             1 1 915 916 0=32 1=3 -23310=1,2.000000e-01 11=3 12=1 13=1 14=1 2=1 3=1 4=1 5=1 6=46080 9=2
Concat                   cat_135                  5 1 897 905 910 914 916 917 0=0
Convolution              conv_172                 1 1 917 918 0=64 1=3 11=3 12=1 13=1 14=1 2=1 3=1 4=1 5=1 6=110592
BinaryOp                 mul_88                   1 1 918 919 0=2 1=1 2=2.000000e-01
BinaryOp                 add_89                   2 1 919 898 920 0=0
Split                    splitncnn_136            1 6 920 921 922 923 924 925 926
Convolution              convrelu_136             1 1 926 927 0=32 1=3 -23310=1,2.000000e-01 11=3 12=1 13=1 14=1 2=1 3=1 4=1 5=1 6=18432 9=2
Split                    splitncnn_137            1 4 927 928 929 930 931
Concat                   cat_136                  2 1 921 928 932 0=0
Convolution              convrelu_137             1 1 932 933 0=32 1=3 -23310=1,2.000000e-01 11=3 12=1 13=1 14=1 2=1 3=1 4=1 5=1 6=27648 9=2
Split                    splitncnn_138            1 3 933 934 935 936
Concat                   cat_137                  3 1 922 929 934 937 0=0
Convolution              convrelu_138             1 1 937 938 0=32 1=3 -23310=1,2.000000e-01 11=3 12=1 13=1 14=1 2=1 3=1 4=1 5=1 6=36864 9=2
Split                    splitncnn_139            1 2 938 939 940
Concat                   cat_138                  4 1 923 930 935 939 941 0=0
Convolution              convrelu_139             1 1 941 942 0=32 1=3 -23310=1,2.000000e-01 11=3 12=1 13=1 14=1 2=1 3=1 4=1 5=1 6=46080 9=2
Concat                   cat_139                  5 1 924 931 936 940 942 943 0=0
Convolution              conv_177                 1 1 943 944 0=64 1=3 11=3 12=1 13=1 14=1 2=1 3=1 4=1 5=1 6=110592
BinaryOp                 mul_90                   1 1 944 945 0=2 1=1 2=2.000000e-01
BinaryOp                 add_91                   2 1 945 925 946 0=0
Split                    splitncnn_140            1 6 946 947 948 949 950 951 952
Convolution              convrelu_140             1 1 952 953 0=32 1=3 -23310=1,2.000000e-01 11=3 12=1 13=1 14=1 2=1 3=1 4=1 5=1 6=18432 9=2
Split                    splitncnn_141            1 4 953 954 955 956 957
Concat                   cat_140                  2 1 947 954 958 0=0
Convolution              convrelu_141             1 1 958 959 0=32 1=3 -23310=1,2.000000e-01 11=3 12=1 13=1 14=1 2=1 3=1 4=1 5=1 6=27648 9=2
Split                    splitncnn_142            1 3 959 960 961 962
Concat                   cat_141                  3 1 948 955 960 963 0=0
Convolution              convrelu_142             1 1 963 964 0=32 1=3 -23310=1,2.000000e-01 11=3 12=1 13=1 14=1 2=1 3=1 4=1 5=1 6=36864 9=2
Split                    splitncnn_143            1 2 964 965 966
Concat                   cat_142                  4 1 949 956 961 965 967 0=0
Convolution              convrelu_143             1 1 967 968 0=32 1=3 -23310=1,2.000000e-01 11=3 12=1 13=1 14=1 2=1 3=1 4=1 5=1 6=46080 9=2
Concat                   cat_143                  5 1 950 957 962 966 968 969 0=0
Convolution              conv_182                 1 1 969 970 0=64 1=3 11=3 12=1 13=1 14=1 2=1 3=1 4=1 5=1 6=110592
BinaryOp                 mul_92                   1 1 970 971 0=2 1=1 2=2.000000e-01
BinaryOp                 add_93                   2 1 971 951 972 0=0
BinaryOp                 mul_94                   1 1 972 973 0=2 1=1 2=2.000000e-01
BinaryOp                 add_95                   2 1 973 899 974 0=0
Split                    splitncnn_144            1 7 974 975 976 977 978 979 980 981
Convolution              convrelu_144             1 1 981 982 0=32 1=3 -23310=1,2.000000e-01 11=3 12=1 13=1 14=1 2=1 3=1 4=1 5=1 6=18432 9=2
Split                    splitncnn_145            1 4 982 983 984 985 986
Concat                   cat_144                  2 1 975 983 987 0=0
Convolution              convrelu_145             1 1 987 988 0=32 1=3 -23310=1,2.000000e-01 11=3 12=1 13=1 14=1 2=1 3=1 4=1 5=1 6=27648 9=2
Split                    splitncnn_146            1 3 988 989 990 991
Concat                   cat_145                  3 1 976 984 989 992 0=0
Convolution              convrelu_146             1 1 992 993 0=32 1=3 -23310=1,2.000000e-01 11=3 12=1 13=1 14=1 2=1 3=1 4=1 5=1 6=36864 9=2
Split                    splitncnn_147            1 2 993 994 995
Concat                   cat_146                  4 1 977 985 990 994 996 0=0
Convolution              convrelu_147             1 1 996 997 0=32 1=3 -23310=1,2.000000e-01 11=3 12=1 13=1 14=1 2=1 3=1 4=1 5=1 6=46080 9=2
Concat                   cat_147                  5 1 978 986 991 995 997 998 0=0
Convolution              conv_187                 1 1 998 999 0=64 1=3 11=3 12=1 13=1 14=1 2=1 3=1 4=1 5=1 6=110592
BinaryOp                 mul_96                   1 1 999 1000 0=2 1=1 2=2.000000e-01
BinaryOp                 add_97                   2 1 1000 979 1001 0=0
Split                    splitncnn_148            1 6 1001 1002 1003 1004 1005 1006 1007
Convolution              convrelu_148             1 1 1007 1008 0=32 1=3 -23310=1,2.000000e-01 11=3 12=1 13=1 14=1 2=1 3=1 4=1 5=1 6=18432 9=2
Split                    splitncnn_149            1 4 1008 1009 1010 1011 1012
Concat                   cat_148                  2 1 1002 1009 1013 0=0
Convolution              convrelu_149             1 1 1013 1014 0=32 1=3 -23310=1,2.000000e-01 11=3 12=1 13=1 14=1 2=1 3=1 4=1 5=1 6=27648 9=2
Split                    splitncnn_150            1 3 1014 1015 1016 1017
Concat                   cat_149                  3 1 1003 1010 1015 1018 0=0
Convolution              convrelu_150             1 1 1018 1019 0=32 1=3 -23310=1,2.000000e-01 11=3 12=1 13=1 14=1 2=1 3=1 4=1 5=1 6=36864 9=2
Split                    splitncnn_151            1 2 1019 1020 1021
Concat                   cat_150                  4 1 1004 1011 1016 1020 1022 0=0
Convolution              convrelu_151             1 1 1022 1023 0=32 1=3 -23310=1,2.000000e-01 11=3 12=1 13=1 14=1 2=1 3=1 4=1 5=1 6=46080 9=2
Concat                   cat_151                  5 1 1005 1012 1017 1021 1023 1024 0=0
Convolution              conv_192                 1 1 1024 1025 0=64 1=3 11=3 12=1 13=1 14=1 2=1 3=1 4=1 5=1 6=110592
BinaryOp                 mul_98                   1 1 1025 1026 0=2 1=1 2=2.000000e-01
BinaryOp                 add_99                   2 1 1026 1006 1027 0=0
Split                    splitncnn_152            1 6 1027 1028 1029 1030 1031 1032 1033
Convolution              convrelu_152             1 1 1033 1034 0=32 1=3 -23310=1,2.000000e-01 11=3 12=1 13=1 14=1 2=1 3=1 4=1 5=1 6=18432 9=2
Split                    splitncnn_153            1 4 1034 1035 1036 1037 1038
Concat                   cat_152                  2 1 1028 1035 1039 0=0
Convolution              convrelu_153             1 1 1039 1040 0=32 1=3 -23310=1,2.000000e-01 11=3 12=1 13=1 14=1 2=1 3=1 4=1 5=1 6=27648 9=2
Split                    splitncnn_154            1 3 1040 1041 1042 1043
Concat                   cat_153                  3 1 1029 1036 1041 1044 0=0
Convolution              convrelu_154             1 1 1044 1045 0=32 1=3 -23310=1,2.000000e-01 11=3 12=1 13=1 14=1 2=1 3=1 4=1 5=1 6=36864 9=2
Split                    splitncnn_155            1 2 1045 1046 1047
Concat                   cat_154                  4 1 1030 1037 1042 1046 1048 0=0
Convolution              convrelu_155             1 1 1048 1049 0=32 1=3 -23310=1,2.000000e-01 11=3 12=1 13=1 14=1 2=1 3=1 4=1 5=1 6=46080 9=2
Concat                   cat_155                  5 1 1031 1038 1043 1047 1049 1050 0=0
Convolution              conv_197                 1 1 1050 1051 0=64 1=3 11=3 12=1 13=1 14=1 2=1 3=1 4=1 5=1 6=110592
BinaryOp                 mul_100                  1 1 1051 1052 0=2 1=1 2=2.000000e-01
BinaryOp                 add_101                  2 1 1052 1032 1053 0=0
BinaryOp                 mul_102                  1 1 1053 1054 0=2 1=1 2=2.000000e-01
BinaryOp                 add_103                  2 1 1054 980 1055 0=0
Split                    splitncnn_156            1 7 1055 1056 1057 1058 1059 1060 1061 1062
Convolution              convrelu_156             1 1 1062 1063 0=32 1=3 -23310=1,2.000000e-01 11=3 12=1 13=1 14=1 2=1 3=1 4=1 5=1 6=18432 9=2
Split                    splitncnn_157            1 4 1063 1064 1065 1066 1067
Concat                   cat_156                  2 1 1056 1064 1068 0=0
Convolution              convrelu_157             1 1 1068 1069 0=32 1=3 -23310=1,2.000000e-01 11=3 12=1 13=1 14=1 2=1 3=1 4=1 5=1 6=27648 9=2
Split                    splitncnn_158            1 3 1069 1070 1071 1072
Concat                   cat_157                  3 1 1057 1065 1070 1073 0=0
Convolution              convrelu_158             1 1 1073 1074 0=32 1=3 -23310=1,2.000000e-01 11=3 12=1 13=1 14=1 2=1 3=1 4=1 5=1 6=36864 9=2
Split                    splitncnn_159            1 2 1074 1075 1076
Concat                   cat_158                  4 1 1058 1066 1071 1075 1077 0=0
Convolution              convrelu_159             1 1 1077 1078 0=32 1=3 -23310=1,2.000000e-01 11=3 12=1 13=1 14=1 2=1 3=1 4=1 5=1 6=46080 9=2
Concat                   cat_159                  5 1 1059 1067 1072 1076 1078 1079 0=0
Convolution              conv_202                 1 1 1079 1080 0=64 1=3 11=3 12=1 13=1 14=1 2=1 3=1 4=1 5=1 6=110592
BinaryOp                 mul_104                  1 1 1080 1081 0=2 1=1 2=2.000000e-01
BinaryOp                 add_105                  2 1 1081 1060 1082 0=0
Split                    splitncnn_160            1 6 1082 1083 1084 1085 1086 1087 1088
Convolution              convrelu_160             1 1 1088 1089 0=32 1=3 -23310=1,2.000000e-01 11=3 12=1 13=1 14=1 2=1 3=1 4=1 5=1 6=18432 9=2
Split                    splitncnn_161            1 4 1089 1090 1091 1092 1093
Concat                   cat_160                  2 1 1083 1090 1094 0=0
Convolution              convrelu_161             1 1 1094 1095 0=32 1=3 -23310=1,2.000000e-01 11=3 12=1 13=1 14=1 2=1 3=1 4=1 5=1 6=27648 9=2
Split                    splitncnn_162            1 3 1095 1096 1097 1098
Concat                   cat_161                  3 1 1084 1091 1096 1099 0=0
Convolution              convrelu_162             1 1 1099 1100 0=32 1=3 -23310=1,2.000000e-01 11=3 12=1 13=1 14=1 2=1 3=1 4=1 5=1 6=36864 9=2
Split                    splitncnn_163            1 2 1100 1101 1102
Concat                   cat_162                  4 1 1085 1092 1097 1101 1103 0=0
Convolution              convrelu_163             1 1 1103 1104 0=32 1=3 -23310=1,2.000000e-01 11=3 12=1 13=1 14=1 2=1 3=1 4=1 5=1 6=46080 9=2
Concat                   cat_163                  5 1 1086 1093 1098 1102 1104 1105 0=0
Convolution              conv_207                 1 1 1105 1106 0=64 1=3 11=3 12=1 13=1 14=1 2=1 3=1 4=1 5=1 6=110592
BinaryOp                 mul_106                  1 1 1106 1107 0=2 1=1 2=2.000000e-01
BinaryOp                 add_107                  2 1 1107 1087 1108 0=0
Split                    splitncnn_164            1 6 1108 1109 1110 1111 1112 1113 1114
Convolution              convrelu_164             1 1 1114 1115 0=32 1=3 -23310=1,2.000000e-01 11=3 12=1 13=1 14=1 2=1 3=1 4=1 5=1 6=18432 9=2
Split                    splitncnn_165            1 4 1115 1116 1117 1118 1119
Concat                   cat_164                  2 1 1109 1116 1120 0=0
Convolution              convrelu_165             1 1 1120 1121 0=32 1=3 -23310=1,2.000000e-01 11=3 12=1 13=1 14=1 2=1 3=1 4=1 5=1 6=27648 9=2
Split                    splitncnn_166            1 3 1121 1122 1123 1124
Concat                   cat_165                  3 1 1110 1117 1122 1125 0=0
Convolution              convrelu_166             1 1 1125 1126 0=32 1=3 -23310=1,2.000000e-01 11=3 12=1 13=1 14=1 2=1 3=1 4=1 5=1 6=36864 9=2
Split                    splitncnn_167            1 2 1126 1127 1128
Concat                   cat_166                  4 1 1111 1118 1123 1127 1129 0=0
Convolution              convrelu_167             1 1 1129 1130 0=32 1=3 -23310=1,2.000000e-01 11=3 12=1 13=1 14=1 2=1 3=1 4=1 5=1 6=46080 9=2
Concat                   cat_167                  5 1 1112 1119 1124 1128 1130 1131 0=0
Convolution              conv_212                 1 1 1131 1132 0=64 1=3 11=3 12=1 13=1 14=1 2=1 3=1 4=1 5=1 6=110592
BinaryOp                 mul_108                  1 1 1132 1133 0=2 1=1 2=2.000000e-01
BinaryOp                 add_109                  2 1 1133 1113 1134 0=0
BinaryOp                 mul_110                  1 1 1134 1135 0=2 1=1 2=2.000000e-01
BinaryOp                 add_111                  2 1 1135 1061 1136 0=0
Split                    splitncnn_168            1 7 1136 1137 1138 1139 1140 1141 1142 1143
Convolution              convrelu_168             1 1 1143 1144 0=32 1=3 -23310=1,2.000000e-01 11=3 12=1 13=1 14=1 2=1 3=1 4=1 5=1 6=18432 9=2
Split                    splitncnn_169            1 4 1144 1145 1146 1147 1148
Concat                   cat_168                  2 1 1137 1145 1149 0=0
Convolution              convrelu_169             1 1 1149 1150 0=32 1=3 -23310=1,2.000000e-01 11=3 12=1 13=1 14=1 2=1 3=1 4=1 5=1 6=27648 9=2
Split                    splitncnn_170            1 3 1150 1151 1152 1153
Concat                   cat_169                  3 1 1138 1146 1151 1154 0=0
Convolution              convrelu_170             1 1 1154 1155 0=32 1=3 -23310=1,2.000000e-01 11=3 12=1 13=1 14=1 2=1 3=1 4=1 5=1 6=36864 9=2
Split                    splitncnn_171            1 2 1155 1156 1157
Concat                   cat_170                  4 1 1139 1147 1152 1156 1158 0=0
Convolution              convrelu_171             1 1 1158 1159 0=32 1=3 -23310=1,2.000000e-01 11=3 12=1 13=1 14=1 2=1 3=1 4=1 5=1 6=46080 9=2
Concat                   cat_171                  5 1 1140 1148 1153 1157 1159 1160 0=0
Convolution              conv_217                 1 1 1160 1161 0=64 1=3 11=3 12=1 13=1 14=1 2=1 3=1 4=1 5=1 6=110592
BinaryOp                 mul_112                  1 1 1161 1162 0=2 1=1 2=2.000000e-01
BinaryOp                 add_113                  2 1 1162 1141 1163 0=0
Split                    splitncnn_172            1 6 1163 1164 1165 1166 1167 1168 1169
Convolution              convrelu_172             1 1 1169 1170 0=32 1=3 -23310=1,2.000000e-01 11=3 12=1 13=1 14=1 2=1 3=1 4=1 5=1 6=18432 9=2
Split                    splitncnn_173            1 4 1170 1171 1172 1173 1174
Concat                   cat_172                  2 1 1164 1171 1175 0=0
Convolution              convrelu_173             1 1 1175 1176 0=32 1=3 -23310=1,2.000000e-01 11=3 12=1 13=1 14=1 2=1 3=1 4=1 5=1 6=27648 9=2
Split                    splitncnn_174            1 3 1176 1177 1178 1179
Concat                   cat_173                  3 1 1165 1172 1177 1180 0=0
Convolution              convrelu_174             1 1 1180 1181 0=32 1=3 -23310=1,2.000000e-01 11=3 12=1 13=1 14=1 2=1 3=1 4=1 5=1 6=36864 9=2
Split                    splitncnn_175            1 2 1181 1182 1183
Concat                   cat_174                  4 1 1166 1173 1178 1182 1184 0=0
Convolution              convrelu_175             1 1 1184 1185 0=32 1=3 -23310=1,2.000000e-01 11=3 12=1 13=1 14=1 2=1 3=1 4=1 5=1 6=46080 9=2
Concat                   cat_175                  5 1 1167 1174 1179 1183 1185 1186 0=0
Convolution              conv_222                 1 1 1186 1187 0=64 1=3 11=3 12=1 13=1 14=1 2=1 3=1 4=1 5=1 6=110592
BinaryOp                 mul_114                  1 1 1187 1188 0=2 1=1 2=2.000000e-01
BinaryOp                 add_115                  2 1 1188 1168 1189 0=0
Split                    splitncnn_176            1 6 1189 1190 1191 1192 1193 1194 1195
Convolution              convrelu_176             1 1 1195 1196 0=32 1=3 -23310=1,2.000000e-01 11=3 12=1 13=1 14=1 2=1 3=1 4=1 5=1 6=18432 9=2
Split                    splitncnn_177            1 4 1196 1197 1198 1199 1200
Concat                   cat_176                  2 1 1190 1197 1201 0=0
Convolution              convrelu_177             1 1 1201 1202 0=32 1=3 -23310=1,2.000000e-01 11=3 12=1 13=1 14=1 2=1 3=1 4=1 5=1 6=27648 9=2
Split                    splitncnn_178            1 3 1202 1203 1204 1205
Concat                   cat_177                  3 1 1191 1198 1203 1206 0=0
Convolution              convrelu_178             1 1 1206 1207 0=32 1=3 -23310=1,2.000000e-01 11=3 12=1 13=1 14=1 2=1 3=1 4=1 5=1 6=36864 9=2
Split                    splitncnn_179            1 2 1207 1208 1209
Concat                   cat_178                  4 1 1192 1199 1204 1208 1210 0=0
Convolution              convrelu_179             1 1 1210 1211 0=32 1=3 -23310=1,2.000000e-01 11=3 12=1 13=1 14=1 2=1 3=1 4=1 5=1 6=46080 9=2
Concat                   cat_179                  5 1 1193 1200 1205 1209 1211 1212 0=0
Convolution              conv_227                 1 1 1212 1213 0=64 1=3 11=3 12=1 13=1 14=1 2=1 3=1 4=1 5=1 6=110592
BinaryOp                 mul_116                  1 1 1213 1214 0=2 1=1 2=2.000000e-01
BinaryOp                 add_117                  2 1 1214 1194 1215 0=0
BinaryOp                 mul_118                  1 1 1215 1216 0=2 1=1 2=2.000000e-01
BinaryOp                 add_119                  2 1 1216 1142 1217 0=0
Split                    splitncnn_180            1 7 1217 1218 1219 1220 1221 1222 1223 1224
Convolution              convrelu_180             1 1 1224 1225 0=32 1=3 -23310=1,2.000000e-01 11=3 12=1 13=1 14=1 2=1 3=1 4=1 5=1 6=18432 9=2
Split                    splitncnn_181            1 4 1225 1226 1227 1228 1229
Concat                   cat_180                  2 1 1218 1226 1230 0=0
Convolution              convrelu_181             1 1 1230 1231 0=32 1=3 -23310=1,2.000000e-01 11=3 12=1 13=1 14=1 2=1 3=1 4=1 5=1 6=27648 9=2
Split                    splitncnn_182            1 3 1231 1232 1233 1234
Concat                   cat_181                  3 1 1219 1227 1232 1235 0=0
Convolution              convrelu_182             1 1 1235 1236 0=32 1=3 -23310=1,2.000000e-01 11=3 12=1 13=1 14=1 2=1 3=1 4=1 5=1 6=36864 9=2
Split                    splitncnn_183            1 2 1236 1237 1238
Concat                   cat_182                  4 1 1220 1228 1233 1237 1239 0=0
Convolution              convrelu_183             1 1 1239 1240 0=32 1=3 -23310=1,2.000000e-01 11=3 12=1 13=1 14=1 2=1 3=1 4=1 5=1 6=46080 9=2
Concat                   cat_183                  5 1 1221 1229 1234 1238 1240 1241 0=0
Convolution              conv_232                 1 1 1241 1242 0=64 1=3 11=3 12=1 13=1 14=1 2=1 3=1 4=1 5=1 6=110592
BinaryOp                 mul_120                  1 1 1242 1243 0=2 1=1 2=2.000000e-01
BinaryOp                 add_121                  2 1 1243 1222 1244 0=0
Split                    splitncnn_184            1 6 1244 1245 1246 1247 1248 1249 1250
Convolution              convrelu_184             1 1 1250 1251 0=32 1=3 -23310=1,2.000000e-01 11=3 12=1 13=1 14=1 2=1 3=1 4=1 5=1 6=18432 9=2
Split                    splitncnn_185            1 4 1251 1252 1253 1254 1255
Concat                   cat_184                  2 1 1245 1252 1256 0=0
Convolution              convrelu_185             1 1 1256 1257 0=32 1=3 -23310=1,2.000000e-01 11=3 12=1 13=1 14=1 2=1 3=1 4=1 5=1 6=27648 9=2
Split                    splitncnn_186            1 3 1257 1258 1259 1260
Concat                   cat_185                  3 1 1246 1253 1258 1261 0=0
Convolution              convrelu_186             1 1 1261 1262 0=32 1=3 -23310=1,2.000000e-01 11=3 12=1 13=1 14=1 2=1 3=1 4=1 5=1 6=36864 9=2
Split                    splitncnn_187            1 2 1262 1263 1264
Concat                   cat_186                  4 1 1247 1254 1259 1263 1265 0=0
Convolution              convrelu_187             1 1 1265 1266 0=32 1=3 -23310=1,2.000000e-01 11=3 12=1 13=1 14=1 2=1 3=1 4=1 5=1 6=46080 9=2
Concat                   cat_187                  5 1 1248 1255 1260 1264 1266 1267 0=0
Convolution              conv_237                 1 1 1267 1268 0=64 1=3 11=3 12=1 13=1 14=1 2=1 3=1 4=1 5=1 6=110592
BinaryOp                 mul_122                  1 1 1268 1269 0=2 1=1 2=2.000000e-01
BinaryOp                 add_123                  2 1 1269 1249 1270 0=0
Split                    splitncnn_188            1 6 1270 1271 1272 1273 1274 1275 1276
Convolution              convrelu_188             1 1 1276 1277 0=32 1=3 -23310=1,2.000000e-01 11=3 12=1 13=1 14=1 2=1 3=1 4=1 5=1 6=18432 9=2
Split                    splitncnn_189            1 4 1277 1278 1279 1280 1281
Concat                   cat_188                  2 1 1271 1278 1282 0=0
Convolution              convrelu_189             1 1 1282 1283 0=32 1=3 -23310=1,2.000000e-01 11=3 12=1 13=1 14=1 2=1 3=1 4=1 5=1 6=27648 9=2
Split                    splitncnn_190            1 3 1283 1284 1285 1286
Concat                   cat_189                  3 1 1272 1279 1284 1287 0=0
Convolution              convrelu_190             1 1 1287 1288 0=32 1=3 -23310=1,2.000000e-01 11=3 12=1 13=1 14=1 2=1 3=1 4=1 5=1 6=36864 9=2
Split                    splitncnn_191            1 2 1288 1289 1290
Concat                   cat_190                  4 1 1273 1280 1285 1289 1291 0=0
Convolution              convrelu_191             1 1 1291 1292 0=32 1=3 -23310=1,2.000000e-01 11=3 12=1 13=1 14=1 2=1 3=1 4=1 5=1 6=46080 9=2
Concat                   cat_191                  5 1 1274 1281 1286 1290 1292 1293 0=0
Convolution              conv_242                 1 1 1293 1294 0=64 1=3 11=3 12=1 13=1 14=1 2=1 3=1 4=1 5=1 6=110592
BinaryOp                 mul_124                  1 1 1294 1295 0=2 1=1 2=2.000000e-01
BinaryOp                 add_125                  2 1 1295 1275 1296 0=0
BinaryOp                 mul_126                  1 1 1296 1297 0=2 1=1 2=2.000000e-01
BinaryOp                 add_127                  2 1 1297 1223 1298 0=0
Split                    splitncnn_192            1 7 1298 1299 1300 1301 1302 1303 1304 1305
Convolution              convrelu_192             1 1 1305 1306 0=32 1=3 -23310=1,2.000000e-01 11=3 12=1 13=1 14=1 2=1 3=1 4=1 5=1 6=18432 9=2
Split                    splitncnn_193            1 4 1306 1307 1308 1309 1310
Concat                   cat_192                  2 1 1299 1307 1311 0=0
Convolution              convrelu_193             1 1 1311 1312 0=32 1=3 -23310=1,2.000000e-01 11=3 12=1 13=1 14=1 2=1 3=1 4=1 5=1 6=27648 9=2
Split                    splitncnn_194            1 3 1312 1313 1314 1315
Concat                   cat_193                  3 1 1300 1308 1313 1316 0=0
Convolution              convrelu_194             1 1 1316 1317 0=32 1=3 -23310=1,2.000000e-01 11=3 12=1 13=1 14=1 2=1 3=1 4=1 5=1 6=36864 9=2
Split                    splitncnn_195            1 2 1317 1318 1319
Concat                   cat_194                  4 1 1301 1309 1314 1318 1320 0=0
Convolution              convrelu_195             1 1 1320 1321 0=32 1=3 -23310=1,2.000000e-01 11=3 12=1 13=1 14=1 2=1 3=1 4=1 5=1 6=46080 9=2
Concat                   cat_195                  5 1 1302 1310 1315 1319 1321 1322 0=0
Convolution              conv_247                 1 1 1322 1323 0=64 1=3 11=3 12=1 13=1 14=1 2=1 3=1 4=1 5=1 6=110592
BinaryOp                 mul_128                  1 1 1323 1324 0=2 1=1 2=2.000000e-01
BinaryOp                 add_129                  2 1 1324 1303 1325 0=0
Split                    splitncnn_196            1 6 1325 1326 1327 1328 1329 1330 1331
Convolution              convrelu_196             1 1 1331 1332 0=32 1=3 -23310=1,2.000000e-01 11=3 12=1 13=1 14=1 2=1 3=1 4=1 5=1 6=18432 9=2
Split                    splitncnn_197            1 4 1332 1333 1334 1335 1336
Concat                   cat_196                  2 1 1326 1333 1337 0=0
Convolution              convrelu_197             1 1 1337 1338 0=32 1=3 -23310=1,2.000000e-01 11=3 12=1 13=1 14=1 2=1 3=1 4=1 5=1 6=27648 9=2
Split                    splitncnn_198            1 3 1338 1339 1340 1341
Concat                   cat_197                  3 1 1327 1334 1339 1342 0=0
Convolution              convrelu_198             1 1 1342 1343 0=32 1=3 -23310=1,2.000000e-01 11=3 12=1 13=1 14=1 2=1 3=1 4=1 5=1 6=36864 9=2
Split                    splitncnn_199            1 2 1343 1344 1345
Concat                   cat_198                  4 1 1328 1335 1340 1344 1346 0=0
Convolution              convrelu_199             1 1 1346 1347 0=32 1=3 -23310=1,2.000000e-01 11=3 12=1 13=1 14=1 2=1 3=1 4=1 5=1 6=46080 9=2
Concat                   cat_199                  5 1 1329 1336 1341 1345 1347 1348 0=0
Convolution              conv_252                 1 1 1348 1349 0=64 1=3 11=3 12=1 13=1 14=1 2=1 3=1 4=1 5=1 6=110592
BinaryOp                 mul_130                  1 1 1349 1350 0=2 1=1 2=2.000000e-01
BinaryOp                 add_131                  2 1 1350 1330 1351 0=0
Split                    splitncnn_200            1 6 1351 1352 1353 1354 1355 1356 1357
Convolution              convrelu_200             1 1 1357 1358 0=32 1=3 -23310=1,2.000000e-01 11=3 12=1 13=1 14=1 2=1 3=1 4=1 5=1 6=18432 9=2
Split                    splitncnn_201            1 4 1358 1359 1360 1361 1362
Concat                   cat_200                  2 1 1352 1359 1363 0=0
Convolution              convrelu_201             1 1 1363 1364 0=32 1=3 -23310=1,2.000000e-01 11=3 12=1 13=1 14=1 2=1 3=1 4=1 5=1 6=27648 9=2
Split                    splitncnn_202            1 3 1364 1365 1366 1367
Concat                   cat_201                  3 1 1353 1360 1365 1368 0=0
Convolution              convrelu_202             1 1 1368 1369 0=32 1=3 -23310=1,2.000000e-01 11=3 12=1 13=1 14=1 2=1 3=1 4=1 5=1 6=36864 9=2
Split                    splitncnn_203            1 2 1369 1370 1371
Concat                   cat_202                  4 1 1354 1361 1366 1370 1372 0=0
Convolution              convrelu_203             1 1 1372 1373 0=32 1=3 -23310=1,2.000000e-01 11=3 12=1 13=1 14=1 2=1 3=1 4=1 5=1 6=46080 9=2
Concat                   cat_203                  5 1 1355 1362 1367 1371 1373 1374 0=0
Convolution              conv_257                 1 1 1374 1375 0=64 1=3 11=3 12=1 13=1 14=1 2=1 3=1 4=1 5=1 6=110592
BinaryOp                 mul_132                  1 1 1375 1376 0=2 1=1 2=2.000000e-01
BinaryOp                 add_133                  2 1 1376 1356 1377 0=0
BinaryOp                 mul_134                  1 1 1377 1378 0=2 1=1 2=2.000000e-01
BinaryOp                 add_135                  2 1 1378 1304 1379 0=0
Split                    splitncnn_204            1 7 1379 1380 1381 1382 1383 1384 1385 1386
Convolution              convrelu_204             1 1 1386 1387 0=32 1=3 -23310=1,2.000000e-01 11=3 12=1 13=1 14=1 2=1 3=1 4=1 5=1 6=18432 9=2
Split                    splitncnn_205            1 4 1387 1388 1389 1390 1391
Concat                   cat_204                  2 1 1380 1388 1392 0=0
Convolution              convrelu_205             1 1 1392 1393 0=32 1=3 -23310=1,2.000000e-01 11=3 12=1 13=1 14=1 2=1 3=1 4=1 5=1 6=27648 9=2
Split                    splitncnn_206            1 3 1393 1394 1395 1396
Concat                   cat_205                  3 1 1381 1389 1394 1397 0=0
Convolution              convrelu_206             1 1 1397 1398 0=32 1=3 -23310=1,2.000000e-01 11=3 12=1 13=1 14=1 2=1 3=1 4=1 5=1 6=36864 9=2
Split                    splitncnn_207            1 2 1398 1399 1400
Concat                   cat_206                  4 1 1382 1390 1395 1399 1401 0=0
Convolution              convrelu_207             1 1 1401 1402 0=32 1=3 -23310=1,2.000000e-01 11=3 12=1 13=1 14=1 2=1 3=1 4=1 5=1 6=46080 9=2
Concat                   cat_207                  5 1 1383 1391 1396 1400 1402 1403 0=0
Convolution              conv_262                 1 1 1403 1404 0=64 1=3 11=3 12=1 13=1 14=1 2=1 3=1 4=1 5=1 6=110592
BinaryOp                 mul_136                  1 1 1404 1405 0=2 1=1 2=2.000000e-01
BinaryOp                 add_137                  2 1 1405 1384 1406 0=0
Split                    splitncnn_208            1 6 1406 1407 1408 1409 1410 1411 1412
Convolution              convrelu_208             1 1 1412 1413 0=32 1=3 -23310=1,2.000000e-01 11=3 12=1 13=1 14=1 2=1 3=1 4=1 5=1 6=18432 9=2
Split                    splitncnn_209            1 4 1413 1414 1415 1416 1417
Concat                   cat_208                  2 1 1407 1414 1418 0=0
Convolution              convrelu_209             1 1 1418 1419 0=32 1=3 -23310=1,2.000000e-01 11=3 12=1 13=1 14=1 2=1 3=1 4=1 5=1 6=27648 9=2
Split                    splitncnn_210            1 3 1419 1420 1421 1422
Concat                   cat_209                  3 1 1408 1415 1420 1423 0=0
Convolution              convrelu_210             1 1 1423 1424 0=32 1=3 -23310=1,2.000000e-01 11=3 12=1 13=1 14=1 2=1 3=1 4=1 5=1 6=36864 9=2
Split                    splitncnn_211            1 2 1424 1425 1426
Concat                   cat_210                  4 1 1409 1416 1421 1425 1427 0=0
Convolution              convrelu_211             1 1 1427 1428 0=32 1=3 -23310=1,2.000000e-01 11=3 12=1 13=1 14=1 2=1 3=1 4=1 5=1 6=46080 9=2
Concat                   cat_211                  5 1 1410 1417 1422 1426 1428 1429 0=0
Convolution              conv_267                 1 1 1429 1430 0=64 1=3 11=3 12=1 13=1 14=1 2=1 3=1 4=1 5=1 6=110592
BinaryOp                 mul_138                  1 1 1430 1431 0=2 1=1 2=2.000000e-01
BinaryOp                 add_139                  2 1 1431 1411 1432 0=0
Split                    splitncnn_212            1 6 1432 1433 1434 1435 1436 1437 1438
Convolution              convrelu_212             1 1 1438 1439 0=32 1=3 -23310=1,2.000000e-01 11=3 12=1 13=1 14=1 2=1 3=1 4=1 5=1 6=18432 9=2
Split                    splitncnn_213            1 4 1439 1440 1441 1442 1443
Concat                   cat_212                  2 1 1433 1440 1444 0=0
Convolution              convrelu_213             1 1 1444 1445 0=32 1=3 -23310=1,2.000000e-01 11=3 12=1 13=1 14=1 2=1 3=1 4=1 5=1 6=27648 9=2
Split                    splitncnn_214            1 3 1445 1446 1447 1448
Concat                   cat_213                  3 1 1434 1441 1446 1449 0=0
Convolution              convrelu_214             1 1 1449 1450 0=32 1=3 -23310=1,2.000000e-01 11=3 12=1 13=1 14=1 2=1 3=1 4=1 5=1 6=36864 9=2
Split                    splitncnn_215            1 2 1450 1451 1452
Concat                   cat_214                  4 1 1435 1442 1447 1451 1453 0=0
Convolution              convrelu_215             1 1 1453 1454 0=32 1=3 -23310=1,2.000000e-01 11=3 12=1 13=1 14=1 2=1 3=1 4=1 5=1 6=46080 9=2
Concat                   cat_215                  5 1 1436 1443 1448 1452 1454 1455 0=0
Convolution              conv_272                 1 1 1455 1456 0=64 1=3 11=3 12=1 13=1 14=1 2=1 3=1 4=1 5=1 6=110592
BinaryOp                 mul_140                  1 1 1456 1457 0=2 1=1 2=2.000000e-01
BinaryOp                 add_141                  2 1 1457 1437 1458 0=0
BinaryOp                 mul_142                  1 1 1458 1459 0=2 1=1 2=2.000000e-01
BinaryOp                 add_143                  2 1 1459 1385 1460 0=0
Split                    splitncnn_216            1 7 1460 1461 1462 1463 1464 1465 1466 1467
Convolution              convrelu_216             1 1 1467 1468 0=32 1=3 -23310=1,2.000000e-01 11=3 12=1 13=1 14=1 2=1 3=1 4=1 5=1 6=18432 9=2
Split                    splitncnn_217            1 4 1468 1469 1470 1471 1472
Concat                   cat_216                  2 1 1461 1469 1473 0=0
Convolution              convrelu_217             1 1 1473 1474 0=32 1=3 -23310=1,2.000000e-01 11=3 12=1 13=1 14=1 2=1 3=1 4=1 5=1 6=27648 9=2
Split                    splitncnn_218            1 3 1474 1475 1476 1477
Concat                   cat_217                  3 1 1462 1470 1475 1478 0=0
Convolution              convrelu_218             1 1 1478 1479 0=32 1=3 -23310=1,2.000000e-01 11=3 12=1 13=1 14=1 2=1 3=1 4=1 5=1 6=36864 9=2
Split                    splitncnn_219            1 2 1479 1480 1481
Concat                   cat_218                  4 1 1463 1471 1476 1480 1482 0=0
Convolution              convrelu_219             1 1 1482 1483 0=32 1=3 -23310=1,2.000000e-01 11=3 12=1 13=1 14=1 2=1 3=1 4=1 5=1 6=46080 9=2
Concat                   cat_219                  5 1 1464 1472 1477 1481 1483 1484 0=0
Convolution              conv_277                 1 1 1484 1485 0=64 1=3 11=3 12=1 13=1 14=1 2=1 3=1 4=1 5=1 6=110592
BinaryOp                 mul_144                  1 1 1485 1486 0=2 1=1 2=2.000000e-01
BinaryOp                 add_145                  2 1 1486 1465 1487 0=0
Split                    splitncnn_220            1 6 1487 1488 1489 1490 1491 1492 1493
Convolution              convrelu_220             1 1 1493 1494 0=32 1=3 -23310=1,2.000000e-01 11=3 12=1 13=1 14=1 2=1 3=1 4=1 5=1 6=18432 9=2
Split                    splitncnn_221            1 4 1494 1495 1496 1497 1498
Concat                   cat_220                  2 1 1488 1495 1499 0=0
Convolution              convrelu_221             1 1 1499 1500 0=32 1=3 -23310=1,2.000000e-01 11=3 12=1 13=1 14=1 2=1 3=1 4=1 5=1 6=27648 9=2
Split                    splitncnn_222            1 3 1500 1501 1502 1503
Concat                   cat_221                  3 1 1489 1496 1501 1504 0=0
Convolution              convrelu_222             1 1 1504 1505 0=32 1=3 -23310=1,2.000000e-01 11=3 12=1 13=1 14=1 2=1 3=1 4=1 5=1 6=36864 9=2
Split                    splitncnn_223            1 2 1505 1506 1507
Concat                   cat_222                  4 1 1490 1497 1502 1506 1508 0=0
Convolution              convrelu_223             1 1 1508 1509 0=32 1=3 -23310=1,2.000000e-01 11=3 12=1 13=1 14=1 2=1 3=1 4=1 5=1 6=46080 9=2
Concat                   cat_223                  5 1 1491 1498 1503 1507 1509 1510 0=0
Convolution              conv_282                 1 1 1510 1511 0=64 1=3 11=3 12=1 13=1 14=1 2=1 3=1 4=1 5=1 6=110592
BinaryOp                 mul_146                  1 1 1511 1512 0=2 1=1 2=2.000000e-01
BinaryOp                 add_147                  2 1 1512 1492 1513 0=0
Split                    splitncnn_224            1 6 1513 1514 1515 1516 1517 1518 1519
Convolution              convrelu_224             1 1 1519 1520 0=32 1=3 -23310=1,2.000000e-01 11=3 12=1 13=1 14=1 2=1 3=1 4=1 5=1 6=18432 9=2
Split                    splitncnn_225            1 4 1520 1521 1522 1523 1524
Concat                   cat_224                  2 1 1514 1521 1525 0=0
Convolution              convrelu_225             1 1 1525 1526 0=32 1=3 -23310=1,2.000000e-01 11=3 12=1 13=1 14=1 2=1 3=1 4=1 5=1 6=27648 9=2
Split                    splitncnn_226            1 3 1526 1527 1528 1529
Concat                   cat_225                  3 1 1515 1522 1527 1530 0=0
Convolution              convrelu_226             1 1 1530 1531 0=32 1=3 -23310=1,2.000000e-01 11=3 12=1 13=1 14=1 2=1 3=1 4=1 5=1 6=36864 9=2
Split                    splitncnn_227            1 2 1531 1532 1533
Concat                   cat_226                  4 1 1516 1523 1528 1532 1534 0=0
Convolution              convrelu_227             1 1 1534 1535 0=32 1=3 -23310=1,2.000000e-01 11=3 12=1 13=1 14=1 2=1 3=1 4=1 5=1 6=46080 9=2
Concat                   cat_227                  5 1 1517 1524 1529 1533 1535 1536 0=0
Convolution              conv_287                 1 1 1536 1537 0=64 1=3 11=3 12=1 13=1 14=1 2=1 3=1 4=1 5=1 6=110592
BinaryOp                 mul_148                  1 1 1537 1538 0=2 1=1 2=2.000000e-01
BinaryOp                 add_149                  2 1 1538 1518 1539 0=0
BinaryOp                 mul_150                  1 1 1539 1540 0=2 1=1 2=2.000000e-01
BinaryOp                 add_151                  2 1 1540 1466 1541 0=0
Split                    splitncnn_228            1 7 1541 1542 1543 1544 1545 1546 1547 1548
Convolution              convrelu_228             1 1 1548 1549 0=32 1=3 -23310=1,2.000000e-01 11=3 12=1 13=1 14=1 2=1 3=1 4=1 5=1 6=18432 9=2
Split                    splitncnn_229            1 4 1549 1550 1551 1552 1553
Concat                   cat_228                  2 1 1542 1550 1554 0=0
Convolution              convrelu_229             1 1 1554 1555 0=32 1=3 -23310=1,2.000000e-01 11=3 12=1 13=1 14=1 2=1 3=1 4=1 5=1 6=27648 9=2
Split                    splitncnn_230            1 3 1555 1556 1557 1558
Concat                   cat_229                  3 1 1543 1551 1556 1559 0=0
Convolution              convrelu_230             1 1 1559 1560 0=32 1=3 -23310=1,2.000000e-01 11=3 12=1 13=1 14=1 2=1 3=1 4=1 5=1 6=36864 9=2
Split                    splitncnn_231            1 2 1560 1561 1562
Concat                   cat_230                  4 1 1544 1552 1557 1561 1563 0=0
Convolution              convrelu_231             1 1 1563 1564 0=32 1=3 -23310=1,2.000000e-01 11=3 12=1 13=1 14=1 2=1 3=1 4=1 5=1 6=46080 9=2
Concat                   cat_231                  5 1 1545 1553 1558 1562 1564 1565 0=0
Convolution              conv_292                 1 1 1565 1566 0=64 1=3 11=3 12=1 13=1 14=1 2=1 3=1 4=1 5=1 6=110592
BinaryOp                 mul_152                  1 1 1566 1567 0=2 1=1 2=2.000000e-01
BinaryOp                 add_153                  2 1 1567 1546 1568 0=0
Split                    splitncnn_232            1 6 1568 1569 1570 1571 1572 1573 1574
Convolution              convrelu_232             1 1 1574 1575 0=32 1=3 -23310=1,2.000000e-01 11=3 12=1 13=1 14=1 2=1 3=1 4=1 5=1 6=18432 9=2
Split                    splitncnn_233            1 4 1575 1576 1577 1578 1579
Concat                   cat_232                  2 1 1569 1576 1580 0=0
Convolution              convrelu_233             1 1 1580 1581 0=32 1=3 -23310=1,2.000000e-01 11=3 12=1 13=1 14=1 2=1 3=1 4=1 5=1 6=27648 9=2
Split                    splitncnn_234            1 3 1581 1582 1583 1584
Concat                   cat_233                  3 1 1570 1577 1582 1585 0=0
Convolution              convrelu_234             1 1 1585 1586 0=32 1=3 -23310=1,2.000000e-01 11=3 12=1 13=1 14=1 2=1 3=1 4=1 5=1 6=36864 9=2
Split                    splitncnn_235            1 2 1586 1587 1588
Concat                   cat_234                  4 1 1571 1578 1583 1587 1589 0=0
Convolution              convrelu_235             1 1 1589 1590 0=32 1=3 -23310=1,2.000000e-01 11=3 12=1 13=1 14=1 2=1 3=1 4=1 5=1 6=46080 9=2
Concat                   cat_235                  5 1 1572 1579 1584 1588 1590 1591 0=0
Convolution              conv_297                 1 1 1591 1592 0=64 1=3 11=3 12=1 13=1 14=1 2=1 3=1 4=1 5=1 6=110592
BinaryOp                 mul_154                  1 1 1592 1593 0=2 1=1 2=2.000000e-01
BinaryOp                 add_155                  2 1 1593 1573 1594 0=0
Split                    splitncnn_236            1 6 1594 1595 1596 1597 1598 1599 1600
Convolution              convrelu_236             1 1 1600 1601 0=32 1=3 -23310=1,2.000000e-01 11=3 12=1 13=1 14=1 2=1 3=1 4=1 5=1 6=18432 9=2
Split                    splitncnn_237            1 4 1601 1602 1603 1604 1605
Concat                   cat_236                  2 1 1595 1602 1606 0=0
Convolution              convrelu_237             1 1 1606 1607 0=32 1=3 -23310=1,2.000000e-01 11=3 12=1 13=1 14=1 2=1 3=1 4=1 5=1 6=27648 9=2
Split                    splitncnn_238            1 3 1607 1608 1609 1610
Concat                   cat_237                  3 1 1596 1603 1608 1611 0=0
Convolution              convrelu_238             1 1 1611 1612 0=32 1=3 -23310=1,2.000000e-01 11=3 12=1 13=1 14=1 2=1 3=1 4=1 5=1 6=36864 9=2
Split                    splitncnn_239            1 2 1612 1613 1614
Concat                   cat_238                  4 1 1597 1604 1609 1613 1615 0=0
Convolution              convrelu_239             1 1 1615 1616 0=32 1=3 -23310=1,2.000000e-01 11=3 12=1 13=1 14=1 2=1 3=1 4=1 5=1 6=46080 9=2
Concat                   cat_239                  5 1 1598 1605 1610 1614 1616 1617 0=0
Convolution              conv_302                 1 1 1617 1618 0=64 1=3 11=3 12=1 13=1 14=1 2=1 3=1 4=1 5=1 6=110592
BinaryOp                 mul_156                  1 1 1618 1619 0=2 1=1 2=2.000000e-01
BinaryOp                 add_157                  2 1 1619 1599 1620 0=0
BinaryOp                 mul_158                  1 1 1620 1621 0=2 1=1 2=2.000000e-01
BinaryOp                 add_159                  2 1 1621 1547 1622 0=0
Split                    splitncnn_240            1 7 1622 1623 1624 1625 1626 1627 1628 1629
Convolution              convrelu_240             1 1 1629 1630 0=32 1=3 -23310=1,2.000000e-01 11=3 12=1 13=1 14=1 2=1 3=1 4=1 5=1 6=18432 9=2
Split                    splitncnn_241            1 4 1630 1631 1632 1633 1634
Concat                   cat_240                  2 1 1623 1631 1635 0=0
Convolution              convrelu_241             1 1 1635 1636 0=32 1=3 -23310=1,2.000000e-01 11=3 12=1 13=1 14=1 2=1 3=1 4=1 5=1 6=27648 9=2
Split                    splitncnn_242            1 3 1636 1637 1638 1639
Concat                   cat_241                  3 1 1624 1632 1637 1640 0=0
Convolution              convrelu_242             1 1 1640 1641 0=32 1=3 -23310=1,2.000000e-01 11=3 12=1 13=1 14=1 2=1 3=1 4=1 5=1 6=36864 9=2
Split                    splitncnn_243            1 2 1641 1642 1643
Concat                   cat_242                  4 1 1625 1633 1638 1642 1644 0=0
Convolution              convrelu_243             1 1 1644 1645 0=32 1=3 -23310=1,2.000000e-01 11=3 12=1 13=1 14=1 2=1 3=1 4=1 5=1 6=46080 9=2
Concat                   cat_243                  5 1 1626 1634 1639 1643 1645 1646 0=0
Convolution              conv_307                 1 1 1646 1647 0=64 1=3 11=3 12=1 13=1 14=1 2=1 3=1 4=1 5=1 6=110592
BinaryOp                 mul_160                  1 1 1647 1648 0=2 1=1 2=2.000000e-01
BinaryOp                 add_161                  2 1 1648 1627 1649 0=0
Split                    splitncnn_244            1 6 1649 1650 1651 1652 1653 1654 1655
Convolution              convrelu_244             1 1 1655 1656 0=32 1=3 -23310=1,2.000000e-01 11=3 12=1 13=1 14=1 2=1 3=1 4=1 5=1 6=18432 9=2
Split                    splitncnn_245            1 4 1656 1657 1658 1659 1660
Concat                   cat_244                  2 1 1650 1657 1661 0=0
Convolution              convrelu_245             1 1 1661 1662 0=32 1=3 -23310=1,2.000000e-01 11=3 12=1 13=1 14=1 2=1 3=1 4=1 5=1 6=27648 9=2
Split                    splitncnn_246            1 3 1662 1663 1664 1665
Concat                   cat_245                  3 1 1651 1658 1663 1666 0=0
Convolution              convrelu_246             1 1 1666 1667 0=32 1=3 -23310=1,2.000000e-01 11=3 12=1 13=1 14=1 2=1 3=1 4=1 5=1 6=36864 9=2
Split                    splitncnn_247            1 2 1667 1668 1669
Concat                   cat_246                  4 1 1652 1659 1664 1668 1670 0=0
Convolution              convrelu_247             1 1 1670 1671 0=32 1=3 -23310=1,2.000000e-01 11=3 12=1 13=1 14=1 2=1 3=1 4=1 5=1 6=46080 9=2
Concat                   cat_247                  5 1 1653 1660 1665 1669 1671 1672 0=0
Convolution              conv_312                 1 1 1672 1673 0=64 1=3 11=3 12=1 13=1 14=1 2=1 3=1 4=1 5=1 6=110592
BinaryOp                 mul_162                  1 1 1673 1674 0=2 1=1 2=2.000000e-01
BinaryOp                 add_163                  2 1 1674 1654 1675 0=0
Split                    splitncnn_248            1 6 1675 1676 1677 1678 1679 1680 1681
Convolution              convrelu_248             1 1 1681 1682 0=32 1=3 -23310=1,2.000000e-01 11=3 12=1 13=1 14=1 2=1 3=1 4=1 5=1 6=18432 9=2
Split                    splitncnn_249            1 4 1682 1683 1684 1685 1686
Concat                   cat_248                  2 1 1676 1683 1687 0=0
Convolution              convrelu_249             1 1 1687 1688 0=32 1=3 -23310=1,2.000000e-01 11=3 12=1 13=1 14=1 2=1 3=1 4=1 5=1 6=27648 9=2
Split                    splitncnn_250            1 3 1688 1689 1690 1691
Concat                   cat_249                  3 1 1677 1684 1689 1692 0=0
Convolution              convrelu_250             1 1 1692 1693 0=32 1=3 -23310=1,2.000000e-01 11=3 12=1 13=1 14=1 2=1 3=1 4=1 5=1 6=36864 9=2
Split                    splitncnn_251            1 2 1693 1694 1695
Concat                   cat_250                  4 1 1678 1685 1690 1694 1696 0=0
Convolution              convrelu_251             1 1 1696 1697 0=32 1=3 -23310=1,2.000000e-01 11=3 12=1 13=1 14=1 2=1 3=1 4=1 5=1 6=46080 9=2
Concat                   cat_251                  5 1 1679 1686 1691 1695 1697 1698 0=0
Convolution              conv_317                 1 1 1698 1699 0=64 1=3 11=3 12=1 13=1 14=1 2=1 3=1 4=1 5=1 6=110592
BinaryOp                 mul_164                  1 1 1699 1700 0=2 1=1 2=2.000000e-01
BinaryOp                 add_165                  2 1 1700 1680 1701 0=0
BinaryOp                 mul_166                  1 1 1701 1702 0=2 1=1 2=2.000000e-01
BinaryOp                 add_167                  2 1 1702 1628 1703 0=0
Split                    splitncnn_252            1 7 1703 1704 1705 1706 1707 1708 1709 1710
Convolution              convrelu_252             1 1 1710 1711 0=32 1=3 -23310=1,2.000000e-01 11=3 12=1 13=1 14=1 2=1 3=1 4=1 5=1 6=18432 9=2
Split                    splitncnn_253            1 4 1711 1712 1713 1714 1715
Concat                   cat_252                  2 1 1704 1712 1716 0=0
Convolution              convrelu_253             1 1 1716 1717 0=32 1=3 -23310=1,2.000000e-01 11=3 12=1 13=1 14=1 2=1 3=1 4=1 5=1 6=27648 9=2
Split                    splitncnn_254            1 3 1717 1718 1719 1720
Concat                   cat_253                  3 1 1705 1713 1718 1721 0=0
Convolution              convrelu_254             1 1 1721 1722 0=32 1=3 -23310=1,2.000000e-01 11=3 12=1 13=1 14=1 2=1 3=1 4=1 5=1 6=36864 9=2
Split                    splitncnn_255            1 2 1722 1723 1724
Concat                   cat_254                  4 1 1706 1714 1719 1723 1725 0=0
Convolution              convrelu_255             1 1 1725 1726 0=32 1=3 -23310=1,2.000000e-01 11=3 12=1 13=1 14=1 2=1 3=1 4=1 5=1 6=46080 9=2
Concat                   cat_255                  5 1 1707 1715 1720 1724 1726 1727 0=0
Convolution              conv_322                 1 1 1727 1728 0=64 1=3 11=3 12=1 13=1 14=1 2=1 3=1 4=1 5=1 6=110592
BinaryOp                 mul_168                  1 1 1728 1729 0=2 1=1 2=2.000000e-01
BinaryOp                 add_169                  2 1 1729 1708 1730 0=0
Split                    splitncnn_256            1 6 1730 1731 1732 1733 1734 1735 1736
Convolution              convrelu_256             1 1 1736 1737 0=32 1=3 -23310=1,2.000000e-01 11=3 12=1 13=1 14=1 2=1 3=1 4=1 5=1 6=18432 9=2
Split                    splitncnn_257            1 4 1737 1738 1739 1740 1741
Concat                   cat_256                  2 1 1731 1738 1742 0=0
Convolution              convrelu_257             1 1 1742 1743 0=32 1=3 -23310=1,2.000000e-01 11=3 12=1 13=1 14=1 2=1 3=1 4=1 5=1 6=27648 9=2
Split                    splitncnn_258            1 3 1743 1744 1745 1746
Concat                   cat_257                  3 1 1732 1739 1744 1747 0=0
Convolution              convrelu_258             1 1 1747 1748 0=32 1=3 -23310=1,2.000000e-01 11=3 12=1 13=1 14=1 2=1 3=1 4=1 5=1 6=36864 9=2
Split                    splitncnn_259            1 2 1748 1749 1750
Concat                   cat_258                  4 1 1733 1740 1745 1749 1751 0=0
Convolution              convrelu_259             1 1 1751 1752 0=32 1=3 -23310=1,2.000000e-01 11=3 12=1 13=1 14=1 2=1 3=1 4=1 5=1 6=46080 9=2
Concat                   cat_259                  5 1 1734 1741 1746 1750 1752 1753 0=0
Convolution              conv_327                 1 1 1753 1754 0=64 1=3 11=3 12=1 13=1 14=1 2=1 3=1 4=1 5=1 6=110592
BinaryOp                 mul_170                  1 1 1754 1755 0=2 1=1 2=2.000000e-01
BinaryOp                 add_171                  2 1 1755 1735 1756 0=0
Split                    splitncnn_260            1 6 1756 1757 1758 1759 1760 1761 1762
Convolution              convrelu_260             1 1 1762 1763 0=32 1=3 -23310=1,2.000000e-01 11=3 12=1 13=1 14=1 2=1 3=1 4=1 5=1 6=18432 9=2
Split                    splitncnn_261            1 4 1763 1764 1765 1766 1767
Concat                   cat_260                  2 1 1757 1764 1768 0=0
Convolution              convrelu_261             1 1 1768 1769 0=32 1=3 -23310=1,2.000000e-01 11=3 12=1 13=1 14=1 2=1 3=1 4=1 5=1 6=27648 9=2
Split                    splitncnn_262            1 3 1769 1770 1771 1772
Concat                   cat_261                  3 1 1758 1765 1770 1773 0=0
Convolution              convrelu_262             1 1 1773 1774 0=32 1=3 -23310=1,2.000000e-01 11=3 12=1 13=1 14=1 2=1 3=1 4=1 5=1 6=36864 9=2
Split                    splitncnn_263            1 2 1774 1775 1776
Concat                   cat_262                  4 1 1759 1766 1771 1775 1777 0=0
Convolution              convrelu_263             1 1 1777 1778 0=32 1=3 -23310=1,2.000000e-01 11=3 12=1 13=1 14=1 2=1 3=1 4=1 5=1 6=46080 9=2
Concat                   cat_263                  5 1 1760 1767 1772 1776 1778 1779 0=0
Convolution              conv_332                 1 1 1779 1780 0=64 1=3 11=3 12=1 13=1 14=1 2=1 3=1 4=1 5=1 6=110592
BinaryOp                 mul_172                  1 1 1780 1781 0=2 1=1 2=2.000000e-01
BinaryOp                 add_173                  2 1 1781 1761 1782 0=0
BinaryOp                 mul_174                  1 1 1782 1783 0=2 1=1 2=2.000000e-01
BinaryOp                 add_175                  2 1 1783 1709 1784 0=0
Split                    splitncnn_264            1 7 1784 1785 1786 1787 1788 1789 1790 1791
Convolution              convrelu_264             1 1 1791 1792 0=32 1=3 -23310=1,2.000000e-01 11=3 12=1 13=1 14=1 2=1 3=1 4=1 5=1 6=18432 9=2
Split                    splitncnn_265            1 4 1792 1793 1794 1795 1796
Concat                   cat_264                  2 1 1785 1793 1797 0=0
Convolution              convrelu_265             1 1 1797 1798 0=32 1=3 -23310=1,2.000000e-01 11=3 12=1 13=1 14=1 2=1 3=1 4=1 5=1 6=27648 9=2
Split                    splitncnn_266            1 3 1798 1799 1800 1801
Concat                   cat_265                  3 1 1786 1794 1799 1802 0=0
Convolution              convrelu_266             1 1 1802 1803 0=32 1=3 -23310=1,2.000000e-01 11=3 12=1 13=1 14=1 2=1 3=1 4=1 5=1 6=36864 9=2
Split                    splitncnn_267            1 2 1803 1804 1805
Concat                   cat_266                  4 1 1787 1795 1800 1804 1806 0=0
Convolution              convrelu_267             1 1 1806 1807 0=32 1=3 -23310=1,2.000000e-01 11=3 12=1 13=1 14=1 2=1 3=1 4=1 5=1 6=46080 9=2
Concat                   cat_267                  5 1 1788 1796 1801 1805 1807 1808 0=0
Convolution              conv_337                 1 1 1808 1809 0=64 1=3 11=3 12=1 13=1 14=1 2=1 3=1 4=1 5=1 6=110592
BinaryOp                 mul_176                  1 1 1809 1810 0=2 1=1 2=2.000000e-01
BinaryOp                 add_177                  2 1 1810 1789 1811 0=0
Split                    splitncnn_268            1 6 1811 1812 1813 1814 1815 1816 1817
Convolution              convrelu_268             1 1 1817 1818 0=32 1=3 -23310=1,2.000000e-01 11=3 12=1 13=1 14=1 2=1 3=1 4=1 5=1 6=18432 9=2
Split                    splitncnn_269            1 4 1818 1819 1820 1821 1822
Concat                   cat_268                  2 1 1812 1819 1823 0=0
Convolution              convrelu_269             1 1 1823 1824 0=32 1=3 -23310=1,2.000000e-01 11=3 12=1 13=1 14=1 2=1 3=1 4=1 5=1 6=27648 9=2
Split                    splitncnn_270            1 3 1824 1825 1826 1827
Concat                   cat_269                  3 1 1813 1820 1825 1828 0=0
Convolution              convrelu_270             1 1 1828 1829 0=32 1=3 -23310=1,2.000000e-01 11=3 12=1 13=1 14=1 2=1 3=1 4=1 5=1 6=36864 9=2
Split                    splitncnn_271            1 2 1829 1830 1831
Concat                   cat_270                  4 1 1814 1821 1826 1830 1832 0=0
Convolution              convrelu_271             1 1 1832 1833 0=32 1=3 -23310=1,2.000000e-01 11=3 12=1 13=1 14=1 2=1 3=1 4=1 5=1 6=46080 9=2
Concat                   cat_271                  5 1 1815 1822 1827 1831 1833 1834 0=0
Convolution              conv_342                 1 1 1834 1835 0=64 1=3 11=3 12=1 13=1 14=1 2=1 3=1 4=1 5=1 6=110592
BinaryOp                 mul_178                  1 1 1835 1836 0=2 1=1 2=2.000000e-01
BinaryOp                 add_179                  2 1 1836 1816 1837 0=0
Split                    splitncnn_272            1 6 1837 1838 1839 1840 1841 1842 1843
Convolution              convrelu_272             1 1 1843 1844 0=32 1=3 -23310=1,2.000000e-01 11=3 12=1 13=1 14=1 2=1 3=1 4=1 5=1 6=18432 9=2
Split                    splitncnn_273            1 4 1844 1845 1846 1847 1848
Concat                   cat_272                  2 1 1838 1845 1849 0=0
Convolution              convrelu_273             1 1 1849 1850 0=32 1=3 -23310=1,2.000000e-01 11=3 12=1 13=1 14=1 2=1 3=1 4=1 5=1 6=27648 9=2
Split                    splitncnn_274            1 3 1850 1851 1852 1853
Concat                   cat_273                  3 1 1839 1846 1851 1854 0=0
Convolution              convrelu_274             1 1 1854 1855 0=32 1=3 -23310=1,2.000000e-01 11=3 12=1 13=1 14=1 2=1 3=1 4=1 5=1 6=36864 9=2
Split                    splitncnn_275            1 2 1855 1856 1857
Concat                   cat_274                  4 1 1840 1847 1852 1856 1858 0=0
Convolution              convrelu_275             1 1 1858 1859 0=32 1=3 -23310=1,2.000000e-01 11=3 12=1 13=1 14=1 2=1 3=1 4=1 5=1 6=46080 9=2
Concat                   cat_275                  5 1 1841 1848 1853 1857 1859 1860 0=0
Convolution              conv_347                 1 1 1860 1861 0=64 1=3 11=3 12=1 13=1 14=1 2=1 3=1 4=1 5=1 6=110592
BinaryOp                 mul_180                  1 1 1861 1862 0=2 1=1 2=2.000000e-01
BinaryOp                 add_181                  2 1 1862 1842 1863 0=0
BinaryOp                 mul_182                  1 1 1863 1864 0=2 1=1 2=2.000000e-01
BinaryOp                 add_183                  2 1 1864 1790 1865 0=0
Convolution              conv_348                 1 1 1865 1866 0=64 1=3 11=3 12=1 13=1 14=1 2=1 3=1 4=1 5=1 6=36864
BinaryOp                 add_184                  2 1 8 1866 1867 0=0
Interp                   upsample_nearest_0       1 1 1867 1868 0=1 1=2.000000e+00 2=2.000000e+00 6=0
Convolution              convrelu_276             1 1 1868 1869 0=64 1=3 -23310=1,2.000000e-01 11=3 12=1 13=1 14=1 2=1 3=1 4=1 5=1 6=36864 9=2
Interp                   upsample_nearest_1       1 1 1869 1870 0=1 1=2.000000e+00 2=2.000000e+00 6=0
Convolution              convrelu_277             1 1 1870 1871 0=64 1=3 -23310=1,2.000000e-01 11=3 12=1 13=1 14=1 2=1 3=1 4=1 5=1 6=36864 9=2
Convolution              convrelu_278             1 1 1871 1872 0=64 1=3 -23310=1,2.000000e-01 11=3 12=1 13=1 14=1 2=1 3=1 4=1 5=1 6=36864 9=2
Convolution              conv_352                 1 1 1872 out0 0=3 1=3 11=3 12=1 13=1 14=1 2=1 3=1 4=1 5=1 6=1728
