7767517
7 7
Input                    in0                      0 1 in0
Input                    in1                      0 1 in1
InnerProduct             linear_2                 1 1 in1 2 0=320 1=1 2=102400
InnerProduct             linear_1                 1 1 in0 3 0=320 1=1 2=51200
BinaryOp                 add_0                    2 1 3 2 4 0=0
TanH                     tanh_0                   1 1 4 5
InnerProduct             linear_3                 1 1 5 out0 0=5537 1=1 2=1771840
